<?xml version="1.0" ?>
<net name="MobileNet-SSD" version="10">
	<layers>
		<layer id="0" name="data" type="Parameter" version="opset1">
			<data element_type="f32" shape="1,3,300,300"/>
			<output>
				<port id="0" precision="FP32">
					<dim>1</dim>
					<dim>3</dim>
					<dim>300</dim>
					<dim>300</dim>
				</port>
			</output>
		</layer>
		<layer id="1" name="data_mul_91189122/copy_const" type="Const" version="opset1">
			<data element_type="f32" offset="0" shape="1,3,1,1" size="12"/>
			<output>
				<port id="1" precision="FP32">
					<dim>1</dim>
					<dim>3</dim>
					<dim>1</dim>
					<dim>1</dim>
				</port>
			</output>
		</layer>
		<layer id="2" name="Mul_/Fused_Mul_" type="Multiply" version="opset1">
			<input>
				<port id="0">
					<dim>1</dim>
					<dim>3</dim>
					<dim>300</dim>
					<dim>300</dim>
				</port>
				<port id="1">
					<dim>1</dim>
					<dim>3</dim>
					<dim>1</dim>
					<dim>1</dim>
				</port>
			</input>
			<output>
				<port id="2" precision="FP32">
					<dim>1</dim>
					<dim>3</dim>
					<dim>300</dim>
					<dim>300</dim>
				</port>
			</output>
		</layer>
		<layer id="3" name="data_add_91199124/copy_const" type="Const" version="opset1">
			<data element_type="f32" offset="12" shape="1,3,1,1" size="12"/>
			<output>
				<port id="1" precision="FP32">
					<dim>1</dim>
					<dim>3</dim>
					<dim>1</dim>
					<dim>1</dim>
				</port>
			</output>
		</layer>
		<layer id="4" name="Add_/Fused_Add_" type="Add" version="opset1">
			<input>
				<port id="0">
					<dim>1</dim>
					<dim>3</dim>
					<dim>300</dim>
					<dim>300</dim>
				</port>
				<port id="1">
					<dim>1</dim>
					<dim>3</dim>
					<dim>1</dim>
					<dim>1</dim>
				</port>
			</input>
			<output>
				<port id="2" precision="FP32">
					<dim>1</dim>
					<dim>3</dim>
					<dim>300</dim>
					<dim>300</dim>
				</port>
			</output>
		</layer>
		<layer id="5" name="conv0/bn/mean/Fused_Mul_98059807_const" type="Const" version="opset1">
			<data element_type="f32" offset="24" shape="32,3,3,3" size="3456"/>
			<output>
				<port id="1" precision="FP32">
					<dim>32</dim>
					<dim>3</dim>
					<dim>3</dim>
					<dim>3</dim>
				</port>
			</output>
		</layer>
		<layer id="6" name="conv0" type="Convolution" version="opset1">
			<data dilations="1,1" output_padding="0,0" pads_begin="1,1" pads_end="1,1" strides="2,2"/>
			<input>
				<port id="0">
					<dim>1</dim>
					<dim>3</dim>
					<dim>300</dim>
					<dim>300</dim>
				</port>
				<port id="1">
					<dim>32</dim>
					<dim>3</dim>
					<dim>3</dim>
					<dim>3</dim>
				</port>
			</input>
			<output>
				<port id="2" precision="FP32">
					<dim>1</dim>
					<dim>32</dim>
					<dim>150</dim>
					<dim>150</dim>
				</port>
			</output>
		</layer>
		<layer id="7" name="data_add_91279132/copy_const" type="Const" version="opset1">
			<data element_type="f32" offset="3480" shape="1,32,1,1" size="128"/>
			<output>
				<port id="1" precision="FP32">
					<dim>1</dim>
					<dim>32</dim>
					<dim>1</dim>
					<dim>1</dim>
				</port>
			</output>
		</layer>
		<layer id="8" name="conv0/bn/variance/Fused_Add_" type="Add" version="opset1">
			<input>
				<port id="0">
					<dim>1</dim>
					<dim>32</dim>
					<dim>150</dim>
					<dim>150</dim>
				</port>
				<port id="1">
					<dim>1</dim>
					<dim>32</dim>
					<dim>1</dim>
					<dim>1</dim>
				</port>
			</input>
			<output>
				<port id="2" precision="FP32">
					<dim>1</dim>
					<dim>32</dim>
					<dim>150</dim>
					<dim>150</dim>
				</port>
			</output>
		</layer>
		<layer id="9" name="conv0/relu" type="ReLU" version="opset1">
			<input>
				<port id="0">
					<dim>1</dim>
					<dim>32</dim>
					<dim>150</dim>
					<dim>150</dim>
				</port>
			</input>
			<output>
				<port id="1" precision="FP32">
					<dim>1</dim>
					<dim>32</dim>
					<dim>150</dim>
					<dim>150</dim>
				</port>
			</output>
		</layer>
		<layer id="10" name="1509615099_const" type="Const" version="opset1">
			<data element_type="f32" offset="3608" shape="32,1,1,3,3" size="1152"/>
			<output>
				<port id="1" precision="FP32">
					<dim>32</dim>
					<dim>1</dim>
					<dim>1</dim>
					<dim>3</dim>
					<dim>3</dim>
				</port>
			</output>
		</layer>
		<layer id="11" name="conv1/dw" type="GroupConvolution" version="opset1">
			<data dilations="1,1" output_padding="0,0" pads_begin="1,1" pads_end="1,1" strides="1,1"/>
			<input>
				<port id="0">
					<dim>1</dim>
					<dim>32</dim>
					<dim>150</dim>
					<dim>150</dim>
				</port>
				<port id="1">
					<dim>32</dim>
					<dim>1</dim>
					<dim>1</dim>
					<dim>3</dim>
					<dim>3</dim>
				</port>
			</input>
			<output>
				<port id="2" precision="FP32">
					<dim>1</dim>
					<dim>32</dim>
					<dim>150</dim>
					<dim>150</dim>
				</port>
			</output>
		</layer>
		<layer id="12" name="data_add_91359140/copy_const" type="Const" version="opset1">
			<data element_type="f32" offset="4760" shape="1,32,1,1" size="128"/>
			<output>
				<port id="1" precision="FP32">
					<dim>1</dim>
					<dim>32</dim>
					<dim>1</dim>
					<dim>1</dim>
				</port>
			</output>
		</layer>
		<layer id="13" name="conv1/dw/bn/variance/Fused_Add_" type="Add" version="opset1">
			<input>
				<port id="0">
					<dim>1</dim>
					<dim>32</dim>
					<dim>150</dim>
					<dim>150</dim>
				</port>
				<port id="1">
					<dim>1</dim>
					<dim>32</dim>
					<dim>1</dim>
					<dim>1</dim>
				</port>
			</input>
			<output>
				<port id="2" precision="FP32">
					<dim>1</dim>
					<dim>32</dim>
					<dim>150</dim>
					<dim>150</dim>
				</port>
			</output>
		</layer>
		<layer id="14" name="conv1/dw/relu" type="ReLU" version="opset1">
			<input>
				<port id="0">
					<dim>1</dim>
					<dim>32</dim>
					<dim>150</dim>
					<dim>150</dim>
				</port>
			</input>
			<output>
				<port id="1" precision="FP32">
					<dim>1</dim>
					<dim>32</dim>
					<dim>150</dim>
					<dim>150</dim>
				</port>
			</output>
		</layer>
		<layer id="15" name="conv1/bn/mean/Fused_Mul_98139815_const" type="Const" version="opset1">
			<data element_type="f32" offset="4888" shape="64,32,1,1" size="8192"/>
			<output>
				<port id="1" precision="FP32">
					<dim>64</dim>
					<dim>32</dim>
					<dim>1</dim>
					<dim>1</dim>
				</port>
			</output>
		</layer>
		<layer id="16" name="conv1" type="Convolution" version="opset1">
			<data dilations="1,1" output_padding="0,0" pads_begin="0,0" pads_end="0,0" strides="1,1"/>
			<input>
				<port id="0">
					<dim>1</dim>
					<dim>32</dim>
					<dim>150</dim>
					<dim>150</dim>
				</port>
				<port id="1">
					<dim>64</dim>
					<dim>32</dim>
					<dim>1</dim>
					<dim>1</dim>
				</port>
			</input>
			<output>
				<port id="2" precision="FP32">
					<dim>1</dim>
					<dim>64</dim>
					<dim>150</dim>
					<dim>150</dim>
				</port>
			</output>
		</layer>
		<layer id="17" name="data_add_91439148/copy_const" type="Const" version="opset1">
			<data element_type="f32" offset="13080" shape="1,64,1,1" size="256"/>
			<output>
				<port id="1" precision="FP32">
					<dim>1</dim>
					<dim>64</dim>
					<dim>1</dim>
					<dim>1</dim>
				</port>
			</output>
		</layer>
		<layer id="18" name="conv1/bn/variance/Fused_Add_" type="Add" version="opset1">
			<input>
				<port id="0">
					<dim>1</dim>
					<dim>64</dim>
					<dim>150</dim>
					<dim>150</dim>
				</port>
				<port id="1">
					<dim>1</dim>
					<dim>64</dim>
					<dim>1</dim>
					<dim>1</dim>
				</port>
			</input>
			<output>
				<port id="2" precision="FP32">
					<dim>1</dim>
					<dim>64</dim>
					<dim>150</dim>
					<dim>150</dim>
				</port>
			</output>
		</layer>
		<layer id="19" name="conv1/relu" type="ReLU" version="opset1">
			<input>
				<port id="0">
					<dim>1</dim>
					<dim>64</dim>
					<dim>150</dim>
					<dim>150</dim>
				</port>
			</input>
			<output>
				<port id="1" precision="FP32">
					<dim>1</dim>
					<dim>64</dim>
					<dim>150</dim>
					<dim>150</dim>
				</port>
			</output>
		</layer>
		<layer id="20" name="1511615119_const" type="Const" version="opset1">
			<data element_type="f32" offset="13336" shape="64,1,1,3,3" size="2304"/>
			<output>
				<port id="1" precision="FP32">
					<dim>64</dim>
					<dim>1</dim>
					<dim>1</dim>
					<dim>3</dim>
					<dim>3</dim>
				</port>
			</output>
		</layer>
		<layer id="21" name="conv2/dw" type="GroupConvolution" version="opset1">
			<data dilations="1,1" output_padding="0,0" pads_begin="1,1" pads_end="1,1" strides="2,2"/>
			<input>
				<port id="0">
					<dim>1</dim>
					<dim>64</dim>
					<dim>150</dim>
					<dim>150</dim>
				</port>
				<port id="1">
					<dim>64</dim>
					<dim>1</dim>
					<dim>1</dim>
					<dim>3</dim>
					<dim>3</dim>
				</port>
			</input>
			<output>
				<port id="2" precision="FP32">
					<dim>1</dim>
					<dim>64</dim>
					<dim>75</dim>
					<dim>75</dim>
				</port>
			</output>
		</layer>
		<layer id="22" name="data_add_91519156/copy_const" type="Const" version="opset1">
			<data element_type="f32" offset="15640" shape="1,64,1,1" size="256"/>
			<output>
				<port id="1" precision="FP32">
					<dim>1</dim>
					<dim>64</dim>
					<dim>1</dim>
					<dim>1</dim>
				</port>
			</output>
		</layer>
		<layer id="23" name="conv2/dw/bn/variance/Fused_Add_" type="Add" version="opset1">
			<input>
				<port id="0">
					<dim>1</dim>
					<dim>64</dim>
					<dim>75</dim>
					<dim>75</dim>
				</port>
				<port id="1">
					<dim>1</dim>
					<dim>64</dim>
					<dim>1</dim>
					<dim>1</dim>
				</port>
			</input>
			<output>
				<port id="2" precision="FP32">
					<dim>1</dim>
					<dim>64</dim>
					<dim>75</dim>
					<dim>75</dim>
				</port>
			</output>
		</layer>
		<layer id="24" name="conv2/dw/relu" type="ReLU" version="opset1">
			<input>
				<port id="0">
					<dim>1</dim>
					<dim>64</dim>
					<dim>75</dim>
					<dim>75</dim>
				</port>
			</input>
			<output>
				<port id="1" precision="FP32">
					<dim>1</dim>
					<dim>64</dim>
					<dim>75</dim>
					<dim>75</dim>
				</port>
			</output>
		</layer>
		<layer id="25" name="conv2/bn/mean/Fused_Mul_98219823_const" type="Const" version="opset1">
			<data element_type="f32" offset="15896" shape="128,64,1,1" size="32768"/>
			<output>
				<port id="1" precision="FP32">
					<dim>128</dim>
					<dim>64</dim>
					<dim>1</dim>
					<dim>1</dim>
				</port>
			</output>
		</layer>
		<layer id="26" name="conv2" type="Convolution" version="opset1">
			<data dilations="1,1" output_padding="0,0" pads_begin="0,0" pads_end="0,0" strides="1,1"/>
			<input>
				<port id="0">
					<dim>1</dim>
					<dim>64</dim>
					<dim>75</dim>
					<dim>75</dim>
				</port>
				<port id="1">
					<dim>128</dim>
					<dim>64</dim>
					<dim>1</dim>
					<dim>1</dim>
				</port>
			</input>
			<output>
				<port id="2" precision="FP32">
					<dim>1</dim>
					<dim>128</dim>
					<dim>75</dim>
					<dim>75</dim>
				</port>
			</output>
		</layer>
		<layer id="27" name="data_add_91599164/copy_const" type="Const" version="opset1">
			<data element_type="f32" offset="48664" shape="1,128,1,1" size="512"/>
			<output>
				<port id="1" precision="FP32">
					<dim>1</dim>
					<dim>128</dim>
					<dim>1</dim>
					<dim>1</dim>
				</port>
			</output>
		</layer>
		<layer id="28" name="conv2/bn/variance/Fused_Add_" type="Add" version="opset1">
			<input>
				<port id="0">
					<dim>1</dim>
					<dim>128</dim>
					<dim>75</dim>
					<dim>75</dim>
				</port>
				<port id="1">
					<dim>1</dim>
					<dim>128</dim>
					<dim>1</dim>
					<dim>1</dim>
				</port>
			</input>
			<output>
				<port id="2" precision="FP32">
					<dim>1</dim>
					<dim>128</dim>
					<dim>75</dim>
					<dim>75</dim>
				</port>
			</output>
		</layer>
		<layer id="29" name="conv2/relu" type="ReLU" version="opset1">
			<input>
				<port id="0">
					<dim>1</dim>
					<dim>128</dim>
					<dim>75</dim>
					<dim>75</dim>
				</port>
			</input>
			<output>
				<port id="1" precision="FP32">
					<dim>1</dim>
					<dim>128</dim>
					<dim>75</dim>
					<dim>75</dim>
				</port>
			</output>
		</layer>
		<layer id="30" name="1508015083_const" type="Const" version="opset1">
			<data element_type="f32" offset="49176" shape="128,1,1,3,3" size="4608"/>
			<output>
				<port id="1" precision="FP32">
					<dim>128</dim>
					<dim>1</dim>
					<dim>1</dim>
					<dim>3</dim>
					<dim>3</dim>
				</port>
			</output>
		</layer>
		<layer id="31" name="conv3/dw" type="GroupConvolution" version="opset1">
			<data dilations="1,1" output_padding="0,0" pads_begin="1,1" pads_end="1,1" strides="1,1"/>
			<input>
				<port id="0">
					<dim>1</dim>
					<dim>128</dim>
					<dim>75</dim>
					<dim>75</dim>
				</port>
				<port id="1">
					<dim>128</dim>
					<dim>1</dim>
					<dim>1</dim>
					<dim>3</dim>
					<dim>3</dim>
				</port>
			</input>
			<output>
				<port id="2" precision="FP32">
					<dim>1</dim>
					<dim>128</dim>
					<dim>75</dim>
					<dim>75</dim>
				</port>
			</output>
		</layer>
		<layer id="32" name="data_add_91679172/copy_const" type="Const" version="opset1">
			<data element_type="f32" offset="53784" shape="1,128,1,1" size="512"/>
			<output>
				<port id="1" precision="FP32">
					<dim>1</dim>
					<dim>128</dim>
					<dim>1</dim>
					<dim>1</dim>
				</port>
			</output>
		</layer>
		<layer id="33" name="conv3/dw/bn/variance/Fused_Add_" type="Add" version="opset1">
			<input>
				<port id="0">
					<dim>1</dim>
					<dim>128</dim>
					<dim>75</dim>
					<dim>75</dim>
				</port>
				<port id="1">
					<dim>1</dim>
					<dim>128</dim>
					<dim>1</dim>
					<dim>1</dim>
				</port>
			</input>
			<output>
				<port id="2" precision="FP32">
					<dim>1</dim>
					<dim>128</dim>
					<dim>75</dim>
					<dim>75</dim>
				</port>
			</output>
		</layer>
		<layer id="34" name="conv3/dw/relu" type="ReLU" version="opset1">
			<input>
				<port id="0">
					<dim>1</dim>
					<dim>128</dim>
					<dim>75</dim>
					<dim>75</dim>
				</port>
			</input>
			<output>
				<port id="1" precision="FP32">
					<dim>1</dim>
					<dim>128</dim>
					<dim>75</dim>
					<dim>75</dim>
				</port>
			</output>
		</layer>
		<layer id="35" name="conv3/bn/mean/Fused_Mul_98299831_const" type="Const" version="opset1">
			<data element_type="f32" offset="54296" shape="128,128,1,1" size="65536"/>
			<output>
				<port id="1" precision="FP32">
					<dim>128</dim>
					<dim>128</dim>
					<dim>1</dim>
					<dim>1</dim>
				</port>
			</output>
		</layer>
		<layer id="36" name="conv3" type="Convolution" version="opset1">
			<data dilations="1,1" output_padding="0,0" pads_begin="0,0" pads_end="0,0" strides="1,1"/>
			<input>
				<port id="0">
					<dim>1</dim>
					<dim>128</dim>
					<dim>75</dim>
					<dim>75</dim>
				</port>
				<port id="1">
					<dim>128</dim>
					<dim>128</dim>
					<dim>1</dim>
					<dim>1</dim>
				</port>
			</input>
			<output>
				<port id="2" precision="FP32">
					<dim>1</dim>
					<dim>128</dim>
					<dim>75</dim>
					<dim>75</dim>
				</port>
			</output>
		</layer>
		<layer id="37" name="data_add_91759180/copy_const" type="Const" version="opset1">
			<data element_type="f32" offset="119832" shape="1,128,1,1" size="512"/>
			<output>
				<port id="1" precision="FP32">
					<dim>1</dim>
					<dim>128</dim>
					<dim>1</dim>
					<dim>1</dim>
				</port>
			</output>
		</layer>
		<layer id="38" name="conv3/bn/variance/Fused_Add_" type="Add" version="opset1">
			<input>
				<port id="0">
					<dim>1</dim>
					<dim>128</dim>
					<dim>75</dim>
					<dim>75</dim>
				</port>
				<port id="1">
					<dim>1</dim>
					<dim>128</dim>
					<dim>1</dim>
					<dim>1</dim>
				</port>
			</input>
			<output>
				<port id="2" precision="FP32">
					<dim>1</dim>
					<dim>128</dim>
					<dim>75</dim>
					<dim>75</dim>
				</port>
			</output>
		</layer>
		<layer id="39" name="conv3/relu" type="ReLU" version="opset1">
			<input>
				<port id="0">
					<dim>1</dim>
					<dim>128</dim>
					<dim>75</dim>
					<dim>75</dim>
				</port>
			</input>
			<output>
				<port id="1" precision="FP32">
					<dim>1</dim>
					<dim>128</dim>
					<dim>75</dim>
					<dim>75</dim>
				</port>
			</output>
		</layer>
		<layer id="40" name="1510815111_const" type="Const" version="opset1">
			<data element_type="f32" offset="120344" shape="128,1,1,3,3" size="4608"/>
			<output>
				<port id="1" precision="FP32">
					<dim>128</dim>
					<dim>1</dim>
					<dim>1</dim>
					<dim>3</dim>
					<dim>3</dim>
				</port>
			</output>
		</layer>
		<layer id="41" name="conv4/dw" type="GroupConvolution" version="opset1">
			<data dilations="1,1" output_padding="0,0" pads_begin="1,1" pads_end="1,1" strides="2,2"/>
			<input>
				<port id="0">
					<dim>1</dim>
					<dim>128</dim>
					<dim>75</dim>
					<dim>75</dim>
				</port>
				<port id="1">
					<dim>128</dim>
					<dim>1</dim>
					<dim>1</dim>
					<dim>3</dim>
					<dim>3</dim>
				</port>
			</input>
			<output>
				<port id="2" precision="FP32">
					<dim>1</dim>
					<dim>128</dim>
					<dim>38</dim>
					<dim>38</dim>
				</port>
			</output>
		</layer>
		<layer id="42" name="data_add_91839188/copy_const" type="Const" version="opset1">
			<data element_type="f32" offset="124952" shape="1,128,1,1" size="512"/>
			<output>
				<port id="1" precision="FP32">
					<dim>1</dim>
					<dim>128</dim>
					<dim>1</dim>
					<dim>1</dim>
				</port>
			</output>
		</layer>
		<layer id="43" name="conv4/dw/bn/variance/Fused_Add_" type="Add" version="opset1">
			<input>
				<port id="0">
					<dim>1</dim>
					<dim>128</dim>
					<dim>38</dim>
					<dim>38</dim>
				</port>
				<port id="1">
					<dim>1</dim>
					<dim>128</dim>
					<dim>1</dim>
					<dim>1</dim>
				</port>
			</input>
			<output>
				<port id="2" precision="FP32">
					<dim>1</dim>
					<dim>128</dim>
					<dim>38</dim>
					<dim>38</dim>
				</port>
			</output>
		</layer>
		<layer id="44" name="conv4/dw/relu" type="ReLU" version="opset1">
			<input>
				<port id="0">
					<dim>1</dim>
					<dim>128</dim>
					<dim>38</dim>
					<dim>38</dim>
				</port>
			</input>
			<output>
				<port id="1" precision="FP32">
					<dim>1</dim>
					<dim>128</dim>
					<dim>38</dim>
					<dim>38</dim>
				</port>
			</output>
		</layer>
		<layer id="45" name="conv4/bn/mean/Fused_Mul_98379839_const" type="Const" version="opset1">
			<data element_type="f32" offset="125464" shape="256,128,1,1" size="131072"/>
			<output>
				<port id="1" precision="FP32">
					<dim>256</dim>
					<dim>128</dim>
					<dim>1</dim>
					<dim>1</dim>
				</port>
			</output>
		</layer>
		<layer id="46" name="conv4" type="Convolution" version="opset1">
			<data dilations="1,1" output_padding="0,0" pads_begin="0,0" pads_end="0,0" strides="1,1"/>
			<input>
				<port id="0">
					<dim>1</dim>
					<dim>128</dim>
					<dim>38</dim>
					<dim>38</dim>
				</port>
				<port id="1">
					<dim>256</dim>
					<dim>128</dim>
					<dim>1</dim>
					<dim>1</dim>
				</port>
			</input>
			<output>
				<port id="2" precision="FP32">
					<dim>1</dim>
					<dim>256</dim>
					<dim>38</dim>
					<dim>38</dim>
				</port>
			</output>
		</layer>
		<layer id="47" name="data_add_91919196/copy_const" type="Const" version="opset1">
			<data element_type="f32" offset="256536" shape="1,256,1,1" size="1024"/>
			<output>
				<port id="1" precision="FP32">
					<dim>1</dim>
					<dim>256</dim>
					<dim>1</dim>
					<dim>1</dim>
				</port>
			</output>
		</layer>
		<layer id="48" name="conv4/bn/variance/Fused_Add_" type="Add" version="opset1">
			<input>
				<port id="0">
					<dim>1</dim>
					<dim>256</dim>
					<dim>38</dim>
					<dim>38</dim>
				</port>
				<port id="1">
					<dim>1</dim>
					<dim>256</dim>
					<dim>1</dim>
					<dim>1</dim>
				</port>
			</input>
			<output>
				<port id="2" precision="FP32">
					<dim>1</dim>
					<dim>256</dim>
					<dim>38</dim>
					<dim>38</dim>
				</port>
			</output>
		</layer>
		<layer id="49" name="conv4/relu" type="ReLU" version="opset1">
			<input>
				<port id="0">
					<dim>1</dim>
					<dim>256</dim>
					<dim>38</dim>
					<dim>38</dim>
				</port>
			</input>
			<output>
				<port id="1" precision="FP32">
					<dim>1</dim>
					<dim>256</dim>
					<dim>38</dim>
					<dim>38</dim>
				</port>
			</output>
		</layer>
		<layer id="50" name="1509215095_const" type="Const" version="opset1">
			<data element_type="f32" offset="257560" shape="256,1,1,3,3" size="9216"/>
			<output>
				<port id="1" precision="FP32">
					<dim>256</dim>
					<dim>1</dim>
					<dim>1</dim>
					<dim>3</dim>
					<dim>3</dim>
				</port>
			</output>
		</layer>
		<layer id="51" name="conv5/dw" type="GroupConvolution" version="opset1">
			<data dilations="1,1" output_padding="0,0" pads_begin="1,1" pads_end="1,1" strides="1,1"/>
			<input>
				<port id="0">
					<dim>1</dim>
					<dim>256</dim>
					<dim>38</dim>
					<dim>38</dim>
				</port>
				<port id="1">
					<dim>256</dim>
					<dim>1</dim>
					<dim>1</dim>
					<dim>3</dim>
					<dim>3</dim>
				</port>
			</input>
			<output>
				<port id="2" precision="FP32">
					<dim>1</dim>
					<dim>256</dim>
					<dim>38</dim>
					<dim>38</dim>
				</port>
			</output>
		</layer>
		<layer id="52" name="data_add_91999204/copy_const" type="Const" version="opset1">
			<data element_type="f32" offset="266776" shape="1,256,1,1" size="1024"/>
			<output>
				<port id="1" precision="FP32">
					<dim>1</dim>
					<dim>256</dim>
					<dim>1</dim>
					<dim>1</dim>
				</port>
			</output>
		</layer>
		<layer id="53" name="conv5/dw/bn/variance/Fused_Add_" type="Add" version="opset1">
			<input>
				<port id="0">
					<dim>1</dim>
					<dim>256</dim>
					<dim>38</dim>
					<dim>38</dim>
				</port>
				<port id="1">
					<dim>1</dim>
					<dim>256</dim>
					<dim>1</dim>
					<dim>1</dim>
				</port>
			</input>
			<output>
				<port id="2" precision="FP32">
					<dim>1</dim>
					<dim>256</dim>
					<dim>38</dim>
					<dim>38</dim>
				</port>
			</output>
		</layer>
		<layer id="54" name="conv5/dw/relu" type="ReLU" version="opset1">
			<input>
				<port id="0">
					<dim>1</dim>
					<dim>256</dim>
					<dim>38</dim>
					<dim>38</dim>
				</port>
			</input>
			<output>
				<port id="1" precision="FP32">
					<dim>1</dim>
					<dim>256</dim>
					<dim>38</dim>
					<dim>38</dim>
				</port>
			</output>
		</layer>
		<layer id="55" name="conv5/bn/mean/Fused_Mul_98459847_const" type="Const" version="opset1">
			<data element_type="f32" offset="267800" shape="256,256,1,1" size="262144"/>
			<output>
				<port id="1" precision="FP32">
					<dim>256</dim>
					<dim>256</dim>
					<dim>1</dim>
					<dim>1</dim>
				</port>
			</output>
		</layer>
		<layer id="56" name="conv5" type="Convolution" version="opset1">
			<data dilations="1,1" output_padding="0,0" pads_begin="0,0" pads_end="0,0" strides="1,1"/>
			<input>
				<port id="0">
					<dim>1</dim>
					<dim>256</dim>
					<dim>38</dim>
					<dim>38</dim>
				</port>
				<port id="1">
					<dim>256</dim>
					<dim>256</dim>
					<dim>1</dim>
					<dim>1</dim>
				</port>
			</input>
			<output>
				<port id="2" precision="FP32">
					<dim>1</dim>
					<dim>256</dim>
					<dim>38</dim>
					<dim>38</dim>
				</port>
			</output>
		</layer>
		<layer id="57" name="data_add_92079212/copy_const" type="Const" version="opset1">
			<data element_type="f32" offset="529944" shape="1,256,1,1" size="1024"/>
			<output>
				<port id="1" precision="FP32">
					<dim>1</dim>
					<dim>256</dim>
					<dim>1</dim>
					<dim>1</dim>
				</port>
			</output>
		</layer>
		<layer id="58" name="conv5/bn/variance/Fused_Add_" type="Add" version="opset1">
			<input>
				<port id="0">
					<dim>1</dim>
					<dim>256</dim>
					<dim>38</dim>
					<dim>38</dim>
				</port>
				<port id="1">
					<dim>1</dim>
					<dim>256</dim>
					<dim>1</dim>
					<dim>1</dim>
				</port>
			</input>
			<output>
				<port id="2" precision="FP32">
					<dim>1</dim>
					<dim>256</dim>
					<dim>38</dim>
					<dim>38</dim>
				</port>
			</output>
		</layer>
		<layer id="59" name="conv5/relu" type="ReLU" version="opset1">
			<input>
				<port id="0">
					<dim>1</dim>
					<dim>256</dim>
					<dim>38</dim>
					<dim>38</dim>
				</port>
			</input>
			<output>
				<port id="1" precision="FP32">
					<dim>1</dim>
					<dim>256</dim>
					<dim>38</dim>
					<dim>38</dim>
				</port>
			</output>
		</layer>
		<layer id="60" name="1507215075_const" type="Const" version="opset1">
			<data element_type="f32" offset="530968" shape="256,1,1,3,3" size="9216"/>
			<output>
				<port id="1" precision="FP32">
					<dim>256</dim>
					<dim>1</dim>
					<dim>1</dim>
					<dim>3</dim>
					<dim>3</dim>
				</port>
			</output>
		</layer>
		<layer id="61" name="conv6/dw" type="GroupConvolution" version="opset1">
			<data dilations="1,1" output_padding="0,0" pads_begin="1,1" pads_end="1,1" strides="2,2"/>
			<input>
				<port id="0">
					<dim>1</dim>
					<dim>256</dim>
					<dim>38</dim>
					<dim>38</dim>
				</port>
				<port id="1">
					<dim>256</dim>
					<dim>1</dim>
					<dim>1</dim>
					<dim>3</dim>
					<dim>3</dim>
				</port>
			</input>
			<output>
				<port id="2" precision="FP32">
					<dim>1</dim>
					<dim>256</dim>
					<dim>19</dim>
					<dim>19</dim>
				</port>
			</output>
		</layer>
		<layer id="62" name="data_add_92159220/copy_const" type="Const" version="opset1">
			<data element_type="f32" offset="540184" shape="1,256,1,1" size="1024"/>
			<output>
				<port id="1" precision="FP32">
					<dim>1</dim>
					<dim>256</dim>
					<dim>1</dim>
					<dim>1</dim>
				</port>
			</output>
		</layer>
		<layer id="63" name="conv6/dw/bn/variance/Fused_Add_" type="Add" version="opset1">
			<input>
				<port id="0">
					<dim>1</dim>
					<dim>256</dim>
					<dim>19</dim>
					<dim>19</dim>
				</port>
				<port id="1">
					<dim>1</dim>
					<dim>256</dim>
					<dim>1</dim>
					<dim>1</dim>
				</port>
			</input>
			<output>
				<port id="2" precision="FP32">
					<dim>1</dim>
					<dim>256</dim>
					<dim>19</dim>
					<dim>19</dim>
				</port>
			</output>
		</layer>
		<layer id="64" name="conv6/dw/relu" type="ReLU" version="opset1">
			<input>
				<port id="0">
					<dim>1</dim>
					<dim>256</dim>
					<dim>19</dim>
					<dim>19</dim>
				</port>
			</input>
			<output>
				<port id="1" precision="FP32">
					<dim>1</dim>
					<dim>256</dim>
					<dim>19</dim>
					<dim>19</dim>
				</port>
			</output>
		</layer>
		<layer id="65" name="conv6/bn/mean/Fused_Mul_98539855_const" type="Const" version="opset1">
			<data element_type="f32" offset="541208" shape="512,256,1,1" size="524288"/>
			<output>
				<port id="1" precision="FP32">
					<dim>512</dim>
					<dim>256</dim>
					<dim>1</dim>
					<dim>1</dim>
				</port>
			</output>
		</layer>
		<layer id="66" name="conv6" type="Convolution" version="opset1">
			<data dilations="1,1" output_padding="0,0" pads_begin="0,0" pads_end="0,0" strides="1,1"/>
			<input>
				<port id="0">
					<dim>1</dim>
					<dim>256</dim>
					<dim>19</dim>
					<dim>19</dim>
				</port>
				<port id="1">
					<dim>512</dim>
					<dim>256</dim>
					<dim>1</dim>
					<dim>1</dim>
				</port>
			</input>
			<output>
				<port id="2" precision="FP32">
					<dim>1</dim>
					<dim>512</dim>
					<dim>19</dim>
					<dim>19</dim>
				</port>
			</output>
		</layer>
		<layer id="67" name="data_add_92239228/copy_const" type="Const" version="opset1">
			<data element_type="f32" offset="1065496" shape="1,512,1,1" size="2048"/>
			<output>
				<port id="1" precision="FP32">
					<dim>1</dim>
					<dim>512</dim>
					<dim>1</dim>
					<dim>1</dim>
				</port>
			</output>
		</layer>
		<layer id="68" name="conv6/bn/variance/Fused_Add_" type="Add" version="opset1">
			<input>
				<port id="0">
					<dim>1</dim>
					<dim>512</dim>
					<dim>19</dim>
					<dim>19</dim>
				</port>
				<port id="1">
					<dim>1</dim>
					<dim>512</dim>
					<dim>1</dim>
					<dim>1</dim>
				</port>
			</input>
			<output>
				<port id="2" precision="FP32">
					<dim>1</dim>
					<dim>512</dim>
					<dim>19</dim>
					<dim>19</dim>
				</port>
			</output>
		</layer>
		<layer id="69" name="conv6/relu" type="ReLU" version="opset1">
			<input>
				<port id="0">
					<dim>1</dim>
					<dim>512</dim>
					<dim>19</dim>
					<dim>19</dim>
				</port>
			</input>
			<output>
				<port id="1" precision="FP32">
					<dim>1</dim>
					<dim>512</dim>
					<dim>19</dim>
					<dim>19</dim>
				</port>
			</output>
		</layer>
		<layer id="70" name="1512015123_const" type="Const" version="opset1">
			<data element_type="f32" offset="1067544" shape="512,1,1,3,3" size="18432"/>
			<output>
				<port id="1" precision="FP32">
					<dim>512</dim>
					<dim>1</dim>
					<dim>1</dim>
					<dim>3</dim>
					<dim>3</dim>
				</port>
			</output>
		</layer>
		<layer id="71" name="conv7/dw" type="GroupConvolution" version="opset1">
			<data dilations="1,1" output_padding="0,0" pads_begin="1,1" pads_end="1,1" strides="1,1"/>
			<input>
				<port id="0">
					<dim>1</dim>
					<dim>512</dim>
					<dim>19</dim>
					<dim>19</dim>
				</port>
				<port id="1">
					<dim>512</dim>
					<dim>1</dim>
					<dim>1</dim>
					<dim>3</dim>
					<dim>3</dim>
				</port>
			</input>
			<output>
				<port id="2" precision="FP32">
					<dim>1</dim>
					<dim>512</dim>
					<dim>19</dim>
					<dim>19</dim>
				</port>
			</output>
		</layer>
		<layer id="72" name="data_add_92319236/copy_const" type="Const" version="opset1">
			<data element_type="f32" offset="1085976" shape="1,512,1,1" size="2048"/>
			<output>
				<port id="1" precision="FP32">
					<dim>1</dim>
					<dim>512</dim>
					<dim>1</dim>
					<dim>1</dim>
				</port>
			</output>
		</layer>
		<layer id="73" name="conv7/dw/bn/variance/Fused_Add_" type="Add" version="opset1">
			<input>
				<port id="0">
					<dim>1</dim>
					<dim>512</dim>
					<dim>19</dim>
					<dim>19</dim>
				</port>
				<port id="1">
					<dim>1</dim>
					<dim>512</dim>
					<dim>1</dim>
					<dim>1</dim>
				</port>
			</input>
			<output>
				<port id="2" precision="FP32">
					<dim>1</dim>
					<dim>512</dim>
					<dim>19</dim>
					<dim>19</dim>
				</port>
			</output>
		</layer>
		<layer id="74" name="conv7/dw/relu" type="ReLU" version="opset1">
			<input>
				<port id="0">
					<dim>1</dim>
					<dim>512</dim>
					<dim>19</dim>
					<dim>19</dim>
				</port>
			</input>
			<output>
				<port id="1" precision="FP32">
					<dim>1</dim>
					<dim>512</dim>
					<dim>19</dim>
					<dim>19</dim>
				</port>
			</output>
		</layer>
		<layer id="75" name="conv7/bn/mean/Fused_Mul_98619863_const" type="Const" version="opset1">
			<data element_type="f32" offset="1088024" shape="512,512,1,1" size="1048576"/>
			<output>
				<port id="1" precision="FP32">
					<dim>512</dim>
					<dim>512</dim>
					<dim>1</dim>
					<dim>1</dim>
				</port>
			</output>
		</layer>
		<layer id="76" name="conv7" type="Convolution" version="opset1">
			<data dilations="1,1" output_padding="0,0" pads_begin="0,0" pads_end="0,0" strides="1,1"/>
			<input>
				<port id="0">
					<dim>1</dim>
					<dim>512</dim>
					<dim>19</dim>
					<dim>19</dim>
				</port>
				<port id="1">
					<dim>512</dim>
					<dim>512</dim>
					<dim>1</dim>
					<dim>1</dim>
				</port>
			</input>
			<output>
				<port id="2" precision="FP32">
					<dim>1</dim>
					<dim>512</dim>
					<dim>19</dim>
					<dim>19</dim>
				</port>
			</output>
		</layer>
		<layer id="77" name="data_add_92399244/copy_const" type="Const" version="opset1">
			<data element_type="f32" offset="2136600" shape="1,512,1,1" size="2048"/>
			<output>
				<port id="1" precision="FP32">
					<dim>1</dim>
					<dim>512</dim>
					<dim>1</dim>
					<dim>1</dim>
				</port>
			</output>
		</layer>
		<layer id="78" name="conv7/bn/variance/Fused_Add_" type="Add" version="opset1">
			<input>
				<port id="0">
					<dim>1</dim>
					<dim>512</dim>
					<dim>19</dim>
					<dim>19</dim>
				</port>
				<port id="1">
					<dim>1</dim>
					<dim>512</dim>
					<dim>1</dim>
					<dim>1</dim>
				</port>
			</input>
			<output>
				<port id="2" precision="FP32">
					<dim>1</dim>
					<dim>512</dim>
					<dim>19</dim>
					<dim>19</dim>
				</port>
			</output>
		</layer>
		<layer id="79" name="conv7/relu" type="ReLU" version="opset1">
			<input>
				<port id="0">
					<dim>1</dim>
					<dim>512</dim>
					<dim>19</dim>
					<dim>19</dim>
				</port>
			</input>
			<output>
				<port id="1" precision="FP32">
					<dim>1</dim>
					<dim>512</dim>
					<dim>19</dim>
					<dim>19</dim>
				</port>
			</output>
		</layer>
		<layer id="80" name="1510015103_const" type="Const" version="opset1">
			<data element_type="f32" offset="2138648" shape="512,1,1,3,3" size="18432"/>
			<output>
				<port id="1" precision="FP32">
					<dim>512</dim>
					<dim>1</dim>
					<dim>1</dim>
					<dim>3</dim>
					<dim>3</dim>
				</port>
			</output>
		</layer>
		<layer id="81" name="conv8/dw" type="GroupConvolution" version="opset1">
			<data dilations="1,1" output_padding="0,0" pads_begin="1,1" pads_end="1,1" strides="1,1"/>
			<input>
				<port id="0">
					<dim>1</dim>
					<dim>512</dim>
					<dim>19</dim>
					<dim>19</dim>
				</port>
				<port id="1">
					<dim>512</dim>
					<dim>1</dim>
					<dim>1</dim>
					<dim>3</dim>
					<dim>3</dim>
				</port>
			</input>
			<output>
				<port id="2" precision="FP32">
					<dim>1</dim>
					<dim>512</dim>
					<dim>19</dim>
					<dim>19</dim>
				</port>
			</output>
		</layer>
		<layer id="82" name="data_add_92479252/copy_const" type="Const" version="opset1">
			<data element_type="f32" offset="2157080" shape="1,512,1,1" size="2048"/>
			<output>
				<port id="1" precision="FP32">
					<dim>1</dim>
					<dim>512</dim>
					<dim>1</dim>
					<dim>1</dim>
				</port>
			</output>
		</layer>
		<layer id="83" name="conv8/dw/bn/variance/Fused_Add_" type="Add" version="opset1">
			<input>
				<port id="0">
					<dim>1</dim>
					<dim>512</dim>
					<dim>19</dim>
					<dim>19</dim>
				</port>
				<port id="1">
					<dim>1</dim>
					<dim>512</dim>
					<dim>1</dim>
					<dim>1</dim>
				</port>
			</input>
			<output>
				<port id="2" precision="FP32">
					<dim>1</dim>
					<dim>512</dim>
					<dim>19</dim>
					<dim>19</dim>
				</port>
			</output>
		</layer>
		<layer id="84" name="conv8/dw/relu" type="ReLU" version="opset1">
			<input>
				<port id="0">
					<dim>1</dim>
					<dim>512</dim>
					<dim>19</dim>
					<dim>19</dim>
				</port>
			</input>
			<output>
				<port id="1" precision="FP32">
					<dim>1</dim>
					<dim>512</dim>
					<dim>19</dim>
					<dim>19</dim>
				</port>
			</output>
		</layer>
		<layer id="85" name="conv8/bn/mean/Fused_Mul_98699871_const" type="Const" version="opset1">
			<data element_type="f32" offset="2159128" shape="512,512,1,1" size="1048576"/>
			<output>
				<port id="1" precision="FP32">
					<dim>512</dim>
					<dim>512</dim>
					<dim>1</dim>
					<dim>1</dim>
				</port>
			</output>
		</layer>
		<layer id="86" name="conv8" type="Convolution" version="opset1">
			<data dilations="1,1" output_padding="0,0" pads_begin="0,0" pads_end="0,0" strides="1,1"/>
			<input>
				<port id="0">
					<dim>1</dim>
					<dim>512</dim>
					<dim>19</dim>
					<dim>19</dim>
				</port>
				<port id="1">
					<dim>512</dim>
					<dim>512</dim>
					<dim>1</dim>
					<dim>1</dim>
				</port>
			</input>
			<output>
				<port id="2" precision="FP32">
					<dim>1</dim>
					<dim>512</dim>
					<dim>19</dim>
					<dim>19</dim>
				</port>
			</output>
		</layer>
		<layer id="87" name="data_add_92559260/copy_const" type="Const" version="opset1">
			<data element_type="f32" offset="3207704" shape="1,512,1,1" size="2048"/>
			<output>
				<port id="1" precision="FP32">
					<dim>1</dim>
					<dim>512</dim>
					<dim>1</dim>
					<dim>1</dim>
				</port>
			</output>
		</layer>
		<layer id="88" name="conv8/bn/variance/Fused_Add_" type="Add" version="opset1">
			<input>
				<port id="0">
					<dim>1</dim>
					<dim>512</dim>
					<dim>19</dim>
					<dim>19</dim>
				</port>
				<port id="1">
					<dim>1</dim>
					<dim>512</dim>
					<dim>1</dim>
					<dim>1</dim>
				</port>
			</input>
			<output>
				<port id="2" precision="FP32">
					<dim>1</dim>
					<dim>512</dim>
					<dim>19</dim>
					<dim>19</dim>
				</port>
			</output>
		</layer>
		<layer id="89" name="conv8/relu" type="ReLU" version="opset1">
			<input>
				<port id="0">
					<dim>1</dim>
					<dim>512</dim>
					<dim>19</dim>
					<dim>19</dim>
				</port>
			</input>
			<output>
				<port id="1" precision="FP32">
					<dim>1</dim>
					<dim>512</dim>
					<dim>19</dim>
					<dim>19</dim>
				</port>
			</output>
		</layer>
		<layer id="90" name="1508815091_const" type="Const" version="opset1">
			<data element_type="f32" offset="3209752" shape="512,1,1,3,3" size="18432"/>
			<output>
				<port id="1" precision="FP32">
					<dim>512</dim>
					<dim>1</dim>
					<dim>1</dim>
					<dim>3</dim>
					<dim>3</dim>
				</port>
			</output>
		</layer>
		<layer id="91" name="conv9/dw" type="GroupConvolution" version="opset1">
			<data dilations="1,1" output_padding="0,0" pads_begin="1,1" pads_end="1,1" strides="1,1"/>
			<input>
				<port id="0">
					<dim>1</dim>
					<dim>512</dim>
					<dim>19</dim>
					<dim>19</dim>
				</port>
				<port id="1">
					<dim>512</dim>
					<dim>1</dim>
					<dim>1</dim>
					<dim>3</dim>
					<dim>3</dim>
				</port>
			</input>
			<output>
				<port id="2" precision="FP32">
					<dim>1</dim>
					<dim>512</dim>
					<dim>19</dim>
					<dim>19</dim>
				</port>
			</output>
		</layer>
		<layer id="92" name="data_add_92639268/copy_const" type="Const" version="opset1">
			<data element_type="f32" offset="3228184" shape="1,512,1,1" size="2048"/>
			<output>
				<port id="1" precision="FP32">
					<dim>1</dim>
					<dim>512</dim>
					<dim>1</dim>
					<dim>1</dim>
				</port>
			</output>
		</layer>
		<layer id="93" name="conv9/dw/bn/variance/Fused_Add_" type="Add" version="opset1">
			<input>
				<port id="0">
					<dim>1</dim>
					<dim>512</dim>
					<dim>19</dim>
					<dim>19</dim>
				</port>
				<port id="1">
					<dim>1</dim>
					<dim>512</dim>
					<dim>1</dim>
					<dim>1</dim>
				</port>
			</input>
			<output>
				<port id="2" precision="FP32">
					<dim>1</dim>
					<dim>512</dim>
					<dim>19</dim>
					<dim>19</dim>
				</port>
			</output>
		</layer>
		<layer id="94" name="conv9/dw/relu" type="ReLU" version="opset1">
			<input>
				<port id="0">
					<dim>1</dim>
					<dim>512</dim>
					<dim>19</dim>
					<dim>19</dim>
				</port>
			</input>
			<output>
				<port id="1" precision="FP32">
					<dim>1</dim>
					<dim>512</dim>
					<dim>19</dim>
					<dim>19</dim>
				</port>
			</output>
		</layer>
		<layer id="95" name="conv9/bn/mean/Fused_Mul_98779879_const" type="Const" version="opset1">
			<data element_type="f32" offset="3230232" shape="512,512,1,1" size="1048576"/>
			<output>
				<port id="1" precision="FP32">
					<dim>512</dim>
					<dim>512</dim>
					<dim>1</dim>
					<dim>1</dim>
				</port>
			</output>
		</layer>
		<layer id="96" name="conv9" type="Convolution" version="opset1">
			<data dilations="1,1" output_padding="0,0" pads_begin="0,0" pads_end="0,0" strides="1,1"/>
			<input>
				<port id="0">
					<dim>1</dim>
					<dim>512</dim>
					<dim>19</dim>
					<dim>19</dim>
				</port>
				<port id="1">
					<dim>512</dim>
					<dim>512</dim>
					<dim>1</dim>
					<dim>1</dim>
				</port>
			</input>
			<output>
				<port id="2" precision="FP32">
					<dim>1</dim>
					<dim>512</dim>
					<dim>19</dim>
					<dim>19</dim>
				</port>
			</output>
		</layer>
		<layer id="97" name="data_add_92719276/copy_const" type="Const" version="opset1">
			<data element_type="f32" offset="4278808" shape="1,512,1,1" size="2048"/>
			<output>
				<port id="1" precision="FP32">
					<dim>1</dim>
					<dim>512</dim>
					<dim>1</dim>
					<dim>1</dim>
				</port>
			</output>
		</layer>
		<layer id="98" name="conv9/bn/variance/Fused_Add_" type="Add" version="opset1">
			<input>
				<port id="0">
					<dim>1</dim>
					<dim>512</dim>
					<dim>19</dim>
					<dim>19</dim>
				</port>
				<port id="1">
					<dim>1</dim>
					<dim>512</dim>
					<dim>1</dim>
					<dim>1</dim>
				</port>
			</input>
			<output>
				<port id="2" precision="FP32">
					<dim>1</dim>
					<dim>512</dim>
					<dim>19</dim>
					<dim>19</dim>
				</port>
			</output>
		</layer>
		<layer id="99" name="conv9/relu" type="ReLU" version="opset1">
			<input>
				<port id="0">
					<dim>1</dim>
					<dim>512</dim>
					<dim>19</dim>
					<dim>19</dim>
				</port>
			</input>
			<output>
				<port id="1" precision="FP32">
					<dim>1</dim>
					<dim>512</dim>
					<dim>19</dim>
					<dim>19</dim>
				</port>
			</output>
		</layer>
		<layer id="100" name="1510415107_const" type="Const" version="opset1">
			<data element_type="f32" offset="4280856" shape="512,1,1,3,3" size="18432"/>
			<output>
				<port id="1" precision="FP32">
					<dim>512</dim>
					<dim>1</dim>
					<dim>1</dim>
					<dim>3</dim>
					<dim>3</dim>
				</port>
			</output>
		</layer>
		<layer id="101" name="conv10/dw" type="GroupConvolution" version="opset1">
			<data dilations="1,1" output_padding="0,0" pads_begin="1,1" pads_end="1,1" strides="1,1"/>
			<input>
				<port id="0">
					<dim>1</dim>
					<dim>512</dim>
					<dim>19</dim>
					<dim>19</dim>
				</port>
				<port id="1">
					<dim>512</dim>
					<dim>1</dim>
					<dim>1</dim>
					<dim>3</dim>
					<dim>3</dim>
				</port>
			</input>
			<output>
				<port id="2" precision="FP32">
					<dim>1</dim>
					<dim>512</dim>
					<dim>19</dim>
					<dim>19</dim>
				</port>
			</output>
		</layer>
		<layer id="102" name="data_add_92799284/copy_const" type="Const" version="opset1">
			<data element_type="f32" offset="4299288" shape="1,512,1,1" size="2048"/>
			<output>
				<port id="1" precision="FP32">
					<dim>1</dim>
					<dim>512</dim>
					<dim>1</dim>
					<dim>1</dim>
				</port>
			</output>
		</layer>
		<layer id="103" name="conv10/dw/bn/variance/Fused_Add_" type="Add" version="opset1">
			<input>
				<port id="0">
					<dim>1</dim>
					<dim>512</dim>
					<dim>19</dim>
					<dim>19</dim>
				</port>
				<port id="1">
					<dim>1</dim>
					<dim>512</dim>
					<dim>1</dim>
					<dim>1</dim>
				</port>
			</input>
			<output>
				<port id="2" precision="FP32">
					<dim>1</dim>
					<dim>512</dim>
					<dim>19</dim>
					<dim>19</dim>
				</port>
			</output>
		</layer>
		<layer id="104" name="conv10/dw/relu" type="ReLU" version="opset1">
			<input>
				<port id="0">
					<dim>1</dim>
					<dim>512</dim>
					<dim>19</dim>
					<dim>19</dim>
				</port>
			</input>
			<output>
				<port id="1" precision="FP32">
					<dim>1</dim>
					<dim>512</dim>
					<dim>19</dim>
					<dim>19</dim>
				</port>
			</output>
		</layer>
		<layer id="105" name="conv10/bn/mean/Fused_Mul_98859887_const" type="Const" version="opset1">
			<data element_type="f32" offset="4301336" shape="512,512,1,1" size="1048576"/>
			<output>
				<port id="1" precision="FP32">
					<dim>512</dim>
					<dim>512</dim>
					<dim>1</dim>
					<dim>1</dim>
				</port>
			</output>
		</layer>
		<layer id="106" name="conv10" type="Convolution" version="opset1">
			<data dilations="1,1" output_padding="0,0" pads_begin="0,0" pads_end="0,0" strides="1,1"/>
			<input>
				<port id="0">
					<dim>1</dim>
					<dim>512</dim>
					<dim>19</dim>
					<dim>19</dim>
				</port>
				<port id="1">
					<dim>512</dim>
					<dim>512</dim>
					<dim>1</dim>
					<dim>1</dim>
				</port>
			</input>
			<output>
				<port id="2" precision="FP32">
					<dim>1</dim>
					<dim>512</dim>
					<dim>19</dim>
					<dim>19</dim>
				</port>
			</output>
		</layer>
		<layer id="107" name="data_add_92879292/copy_const" type="Const" version="opset1">
			<data element_type="f32" offset="5349912" shape="1,512,1,1" size="2048"/>
			<output>
				<port id="1" precision="FP32">
					<dim>1</dim>
					<dim>512</dim>
					<dim>1</dim>
					<dim>1</dim>
				</port>
			</output>
		</layer>
		<layer id="108" name="conv10/bn/variance/Fused_Add_" type="Add" version="opset1">
			<input>
				<port id="0">
					<dim>1</dim>
					<dim>512</dim>
					<dim>19</dim>
					<dim>19</dim>
				</port>
				<port id="1">
					<dim>1</dim>
					<dim>512</dim>
					<dim>1</dim>
					<dim>1</dim>
				</port>
			</input>
			<output>
				<port id="2" precision="FP32">
					<dim>1</dim>
					<dim>512</dim>
					<dim>19</dim>
					<dim>19</dim>
				</port>
			</output>
		</layer>
		<layer id="109" name="conv10/relu" type="ReLU" version="opset1">
			<input>
				<port id="0">
					<dim>1</dim>
					<dim>512</dim>
					<dim>19</dim>
					<dim>19</dim>
				</port>
			</input>
			<output>
				<port id="1" precision="FP32">
					<dim>1</dim>
					<dim>512</dim>
					<dim>19</dim>
					<dim>19</dim>
				</port>
			</output>
		</layer>
		<layer id="110" name="1507615079_const" type="Const" version="opset1">
			<data element_type="f32" offset="5351960" shape="512,1,1,3,3" size="18432"/>
			<output>
				<port id="1" precision="FP32">
					<dim>512</dim>
					<dim>1</dim>
					<dim>1</dim>
					<dim>3</dim>
					<dim>3</dim>
				</port>
			</output>
		</layer>
		<layer id="111" name="conv11/dw" type="GroupConvolution" version="opset1">
			<data dilations="1,1" output_padding="0,0" pads_begin="1,1" pads_end="1,1" strides="1,1"/>
			<input>
				<port id="0">
					<dim>1</dim>
					<dim>512</dim>
					<dim>19</dim>
					<dim>19</dim>
				</port>
				<port id="1">
					<dim>512</dim>
					<dim>1</dim>
					<dim>1</dim>
					<dim>3</dim>
					<dim>3</dim>
				</port>
			</input>
			<output>
				<port id="2" precision="FP32">
					<dim>1</dim>
					<dim>512</dim>
					<dim>19</dim>
					<dim>19</dim>
				</port>
			</output>
		</layer>
		<layer id="112" name="data_add_92959300/copy_const" type="Const" version="opset1">
			<data element_type="f32" offset="5370392" shape="1,512,1,1" size="2048"/>
			<output>
				<port id="1" precision="FP32">
					<dim>1</dim>
					<dim>512</dim>
					<dim>1</dim>
					<dim>1</dim>
				</port>
			</output>
		</layer>
		<layer id="113" name="conv11/dw/bn/variance/Fused_Add_" type="Add" version="opset1">
			<input>
				<port id="0">
					<dim>1</dim>
					<dim>512</dim>
					<dim>19</dim>
					<dim>19</dim>
				</port>
				<port id="1">
					<dim>1</dim>
					<dim>512</dim>
					<dim>1</dim>
					<dim>1</dim>
				</port>
			</input>
			<output>
				<port id="2" precision="FP32">
					<dim>1</dim>
					<dim>512</dim>
					<dim>19</dim>
					<dim>19</dim>
				</port>
			</output>
		</layer>
		<layer id="114" name="conv11/dw/relu" type="ReLU" version="opset1">
			<input>
				<port id="0">
					<dim>1</dim>
					<dim>512</dim>
					<dim>19</dim>
					<dim>19</dim>
				</port>
			</input>
			<output>
				<port id="1" precision="FP32">
					<dim>1</dim>
					<dim>512</dim>
					<dim>19</dim>
					<dim>19</dim>
				</port>
			</output>
		</layer>
		<layer id="115" name="conv11/bn/mean/Fused_Mul_98939895_const" type="Const" version="opset1">
			<data element_type="f32" offset="5372440" shape="512,512,1,1" size="1048576"/>
			<output>
				<port id="1" precision="FP32">
					<dim>512</dim>
					<dim>512</dim>
					<dim>1</dim>
					<dim>1</dim>
				</port>
			</output>
		</layer>
		<layer id="116" name="conv11" type="Convolution" version="opset1">
			<data dilations="1,1" output_padding="0,0" pads_begin="0,0" pads_end="0,0" strides="1,1"/>
			<input>
				<port id="0">
					<dim>1</dim>
					<dim>512</dim>
					<dim>19</dim>
					<dim>19</dim>
				</port>
				<port id="1">
					<dim>512</dim>
					<dim>512</dim>
					<dim>1</dim>
					<dim>1</dim>
				</port>
			</input>
			<output>
				<port id="2" precision="FP32">
					<dim>1</dim>
					<dim>512</dim>
					<dim>19</dim>
					<dim>19</dim>
				</port>
			</output>
		</layer>
		<layer id="117" name="data_add_93039308/copy_const" type="Const" version="opset1">
			<data element_type="f32" offset="6421016" shape="1,512,1,1" size="2048"/>
			<output>
				<port id="1" precision="FP32">
					<dim>1</dim>
					<dim>512</dim>
					<dim>1</dim>
					<dim>1</dim>
				</port>
			</output>
		</layer>
		<layer id="118" name="conv11/bn/variance/Fused_Add_" type="Add" version="opset1">
			<input>
				<port id="0">
					<dim>1</dim>
					<dim>512</dim>
					<dim>19</dim>
					<dim>19</dim>
				</port>
				<port id="1">
					<dim>1</dim>
					<dim>512</dim>
					<dim>1</dim>
					<dim>1</dim>
				</port>
			</input>
			<output>
				<port id="2" precision="FP32">
					<dim>1</dim>
					<dim>512</dim>
					<dim>19</dim>
					<dim>19</dim>
				</port>
			</output>
		</layer>
		<layer id="119" name="conv11/relu" type="ReLU" version="opset1">
			<input>
				<port id="0">
					<dim>1</dim>
					<dim>512</dim>
					<dim>19</dim>
					<dim>19</dim>
				</port>
			</input>
			<output>
				<port id="1" precision="FP32">
					<dim>1</dim>
					<dim>512</dim>
					<dim>19</dim>
					<dim>19</dim>
				</port>
			</output>
		</layer>
		<layer id="120" name="224/Output_0/Data__const" type="Const" version="opset1">
			<data element_type="f32" offset="6423064" shape="8,512,1,1" size="16384"/>
			<output>
				<port id="1" precision="FP32">
					<dim>8</dim>
					<dim>512</dim>
					<dim>1</dim>
					<dim>1</dim>
				</port>
			</output>
		</layer>
		<layer id="121" name="conv11_mbox_loc/WithoutBiases" type="Convolution" version="opset1">
			<data dilations="1,1" output_padding="0,0" pads_begin="0,0" pads_end="0,0" strides="1,1"/>
			<input>
				<port id="0">
					<dim>1</dim>
					<dim>512</dim>
					<dim>19</dim>
					<dim>19</dim>
				</port>
				<port id="1">
					<dim>8</dim>
					<dim>512</dim>
					<dim>1</dim>
					<dim>1</dim>
				</port>
			</input>
			<output>
				<port id="2" precision="FP32">
					<dim>1</dim>
					<dim>8</dim>
					<dim>19</dim>
					<dim>19</dim>
				</port>
			</output>
		</layer>
		<layer id="122" name="conv11_mbox_loc/Dims5539/copy_const" type="Const" version="opset1">
			<data element_type="f32" offset="6439448" shape="1,8,1,1" size="32"/>
			<output>
				<port id="1" precision="FP32">
					<dim>1</dim>
					<dim>8</dim>
					<dim>1</dim>
					<dim>1</dim>
				</port>
			</output>
		</layer>
		<layer id="123" name="conv11_mbox_loc" type="Add" version="opset1">
			<input>
				<port id="0">
					<dim>1</dim>
					<dim>8</dim>
					<dim>19</dim>
					<dim>19</dim>
				</port>
				<port id="1">
					<dim>1</dim>
					<dim>8</dim>
					<dim>1</dim>
					<dim>1</dim>
				</port>
			</input>
			<output>
				<port id="2" precision="FP32">
					<dim>1</dim>
					<dim>8</dim>
					<dim>19</dim>
					<dim>19</dim>
				</port>
			</output>
		</layer>
		<layer id="124" name="conv11_mbox_loc_perm/Cast_115451_const" type="Const" version="opset1">
			<data element_type="i64" offset="6439480" shape="4" size="32"/>
			<output>
				<port id="1" precision="I64">
					<dim>4</dim>
				</port>
			</output>
		</layer>
		<layer id="125" name="conv11_mbox_loc_perm" type="Transpose" version="opset1">
			<input>
				<port id="0">
					<dim>1</dim>
					<dim>8</dim>
					<dim>19</dim>
					<dim>19</dim>
				</port>
				<port id="1">
					<dim>4</dim>
				</port>
			</input>
			<output>
				<port id="2" precision="FP32">
					<dim>1</dim>
					<dim>19</dim>
					<dim>19</dim>
					<dim>8</dim>
				</port>
			</output>
		</layer>
		<layer id="126" name="conv11_mbox_loc_flat/Cast_115489_const" type="Const" version="opset1">
			<data element_type="i64" offset="6439512" shape="2" size="16"/>
			<output>
				<port id="1" precision="I64">
					<dim>2</dim>
				</port>
			</output>
		</layer>
		<layer id="127" name="conv11_mbox_loc_flat" type="Reshape" version="opset1">
			<data special_zero="True"/>
			<input>
				<port id="0">
					<dim>1</dim>
					<dim>19</dim>
					<dim>19</dim>
					<dim>8</dim>
				</port>
				<port id="1">
					<dim>2</dim>
				</port>
			</input>
			<output>
				<port id="2" precision="FP32">
					<dim>1</dim>
					<dim>2888</dim>
				</port>
			</output>
		</layer>
		<layer id="128" name="1511215115_const" type="Const" version="opset1">
			<data element_type="f32" offset="6439528" shape="512,1,1,3,3" size="18432"/>
			<output>
				<port id="1" precision="FP32">
					<dim>512</dim>
					<dim>1</dim>
					<dim>1</dim>
					<dim>3</dim>
					<dim>3</dim>
				</port>
			</output>
		</layer>
		<layer id="129" name="conv12/dw" type="GroupConvolution" version="opset1">
			<data dilations="1,1" output_padding="0,0" pads_begin="1,1" pads_end="1,1" strides="2,2"/>
			<input>
				<port id="0">
					<dim>1</dim>
					<dim>512</dim>
					<dim>19</dim>
					<dim>19</dim>
				</port>
				<port id="1">
					<dim>512</dim>
					<dim>1</dim>
					<dim>1</dim>
					<dim>3</dim>
					<dim>3</dim>
				</port>
			</input>
			<output>
				<port id="2" precision="FP32">
					<dim>1</dim>
					<dim>512</dim>
					<dim>10</dim>
					<dim>10</dim>
				</port>
			</output>
		</layer>
		<layer id="130" name="data_add_93119316/copy_const" type="Const" version="opset1">
			<data element_type="f32" offset="6457960" shape="1,512,1,1" size="2048"/>
			<output>
				<port id="1" precision="FP32">
					<dim>1</dim>
					<dim>512</dim>
					<dim>1</dim>
					<dim>1</dim>
				</port>
			</output>
		</layer>
		<layer id="131" name="conv12/dw/bn/variance/Fused_Add_" type="Add" version="opset1">
			<input>
				<port id="0">
					<dim>1</dim>
					<dim>512</dim>
					<dim>10</dim>
					<dim>10</dim>
				</port>
				<port id="1">
					<dim>1</dim>
					<dim>512</dim>
					<dim>1</dim>
					<dim>1</dim>
				</port>
			</input>
			<output>
				<port id="2" precision="FP32">
					<dim>1</dim>
					<dim>512</dim>
					<dim>10</dim>
					<dim>10</dim>
				</port>
			</output>
		</layer>
		<layer id="132" name="conv12/dw/relu" type="ReLU" version="opset1">
			<input>
				<port id="0">
					<dim>1</dim>
					<dim>512</dim>
					<dim>10</dim>
					<dim>10</dim>
				</port>
			</input>
			<output>
				<port id="1" precision="FP32">
					<dim>1</dim>
					<dim>512</dim>
					<dim>10</dim>
					<dim>10</dim>
				</port>
			</output>
		</layer>
		<layer id="133" name="conv12/bn/mean/Fused_Mul_99019903_const" type="Const" version="opset1">
			<data element_type="f32" offset="6460008" shape="1024,512,1,1" size="2097152"/>
			<output>
				<port id="1" precision="FP32">
					<dim>1024</dim>
					<dim>512</dim>
					<dim>1</dim>
					<dim>1</dim>
				</port>
			</output>
		</layer>
		<layer id="134" name="conv12" type="Convolution" version="opset1">
			<data dilations="1,1" output_padding="0,0" pads_begin="0,0" pads_end="0,0" strides="1,1"/>
			<input>
				<port id="0">
					<dim>1</dim>
					<dim>512</dim>
					<dim>10</dim>
					<dim>10</dim>
				</port>
				<port id="1">
					<dim>1024</dim>
					<dim>512</dim>
					<dim>1</dim>
					<dim>1</dim>
				</port>
			</input>
			<output>
				<port id="2" precision="FP32">
					<dim>1</dim>
					<dim>1024</dim>
					<dim>10</dim>
					<dim>10</dim>
				</port>
			</output>
		</layer>
		<layer id="135" name="data_add_93199324/copy_const" type="Const" version="opset1">
			<data element_type="f32" offset="8557160" shape="1,1024,1,1" size="4096"/>
			<output>
				<port id="1" precision="FP32">
					<dim>1</dim>
					<dim>1024</dim>
					<dim>1</dim>
					<dim>1</dim>
				</port>
			</output>
		</layer>
		<layer id="136" name="conv12/bn/variance/Fused_Add_" type="Add" version="opset1">
			<input>
				<port id="0">
					<dim>1</dim>
					<dim>1024</dim>
					<dim>10</dim>
					<dim>10</dim>
				</port>
				<port id="1">
					<dim>1</dim>
					<dim>1024</dim>
					<dim>1</dim>
					<dim>1</dim>
				</port>
			</input>
			<output>
				<port id="2" precision="FP32">
					<dim>1</dim>
					<dim>1024</dim>
					<dim>10</dim>
					<dim>10</dim>
				</port>
			</output>
		</layer>
		<layer id="137" name="conv12/relu" type="ReLU" version="opset1">
			<input>
				<port id="0">
					<dim>1</dim>
					<dim>1024</dim>
					<dim>10</dim>
					<dim>10</dim>
				</port>
			</input>
			<output>
				<port id="1" precision="FP32">
					<dim>1</dim>
					<dim>1024</dim>
					<dim>10</dim>
					<dim>10</dim>
				</port>
			</output>
		</layer>
		<layer id="138" name="1508415087_const" type="Const" version="opset1">
			<data element_type="f32" offset="8561256" shape="1024,1,1,3,3" size="36864"/>
			<output>
				<port id="1" precision="FP32">
					<dim>1024</dim>
					<dim>1</dim>
					<dim>1</dim>
					<dim>3</dim>
					<dim>3</dim>
				</port>
			</output>
		</layer>
		<layer id="139" name="conv13/dw" type="GroupConvolution" version="opset1">
			<data dilations="1,1" output_padding="0,0" pads_begin="1,1" pads_end="1,1" strides="1,1"/>
			<input>
				<port id="0">
					<dim>1</dim>
					<dim>1024</dim>
					<dim>10</dim>
					<dim>10</dim>
				</port>
				<port id="1">
					<dim>1024</dim>
					<dim>1</dim>
					<dim>1</dim>
					<dim>3</dim>
					<dim>3</dim>
				</port>
			</input>
			<output>
				<port id="2" precision="FP32">
					<dim>1</dim>
					<dim>1024</dim>
					<dim>10</dim>
					<dim>10</dim>
				</port>
			</output>
		</layer>
		<layer id="140" name="data_add_93279332/copy_const" type="Const" version="opset1">
			<data element_type="f32" offset="8598120" shape="1,1024,1,1" size="4096"/>
			<output>
				<port id="1" precision="FP32">
					<dim>1</dim>
					<dim>1024</dim>
					<dim>1</dim>
					<dim>1</dim>
				</port>
			</output>
		</layer>
		<layer id="141" name="conv13/dw/bn/variance/Fused_Add_" type="Add" version="opset1">
			<input>
				<port id="0">
					<dim>1</dim>
					<dim>1024</dim>
					<dim>10</dim>
					<dim>10</dim>
				</port>
				<port id="1">
					<dim>1</dim>
					<dim>1024</dim>
					<dim>1</dim>
					<dim>1</dim>
				</port>
			</input>
			<output>
				<port id="2" precision="FP32">
					<dim>1</dim>
					<dim>1024</dim>
					<dim>10</dim>
					<dim>10</dim>
				</port>
			</output>
		</layer>
		<layer id="142" name="conv13/dw/relu" type="ReLU" version="opset1">
			<input>
				<port id="0">
					<dim>1</dim>
					<dim>1024</dim>
					<dim>10</dim>
					<dim>10</dim>
				</port>
			</input>
			<output>
				<port id="1" precision="FP32">
					<dim>1</dim>
					<dim>1024</dim>
					<dim>10</dim>
					<dim>10</dim>
				</port>
			</output>
		</layer>
		<layer id="143" name="conv13/bn/mean/Fused_Mul_99099911_const" type="Const" version="opset1">
			<data element_type="f32" offset="8602216" shape="1024,1024,1,1" size="4194304"/>
			<output>
				<port id="1" precision="FP32">
					<dim>1024</dim>
					<dim>1024</dim>
					<dim>1</dim>
					<dim>1</dim>
				</port>
			</output>
		</layer>
		<layer id="144" name="conv13" type="Convolution" version="opset1">
			<data dilations="1,1" output_padding="0,0" pads_begin="0,0" pads_end="0,0" strides="1,1"/>
			<input>
				<port id="0">
					<dim>1</dim>
					<dim>1024</dim>
					<dim>10</dim>
					<dim>10</dim>
				</port>
				<port id="1">
					<dim>1024</dim>
					<dim>1024</dim>
					<dim>1</dim>
					<dim>1</dim>
				</port>
			</input>
			<output>
				<port id="2" precision="FP32">
					<dim>1</dim>
					<dim>1024</dim>
					<dim>10</dim>
					<dim>10</dim>
				</port>
			</output>
		</layer>
		<layer id="145" name="data_add_93359340/copy_const" type="Const" version="opset1">
			<data element_type="f32" offset="12796520" shape="1,1024,1,1" size="4096"/>
			<output>
				<port id="1" precision="FP32">
					<dim>1</dim>
					<dim>1024</dim>
					<dim>1</dim>
					<dim>1</dim>
				</port>
			</output>
		</layer>
		<layer id="146" name="conv13/bn/variance/Fused_Add_" type="Add" version="opset1">
			<input>
				<port id="0">
					<dim>1</dim>
					<dim>1024</dim>
					<dim>10</dim>
					<dim>10</dim>
				</port>
				<port id="1">
					<dim>1</dim>
					<dim>1024</dim>
					<dim>1</dim>
					<dim>1</dim>
				</port>
			</input>
			<output>
				<port id="2" precision="FP32">
					<dim>1</dim>
					<dim>1024</dim>
					<dim>10</dim>
					<dim>10</dim>
				</port>
			</output>
		</layer>
		<layer id="147" name="conv13/relu" type="ReLU" version="opset1">
			<input>
				<port id="0">
					<dim>1</dim>
					<dim>1024</dim>
					<dim>10</dim>
					<dim>10</dim>
				</port>
			</input>
			<output>
				<port id="1" precision="FP32">
					<dim>1</dim>
					<dim>1024</dim>
					<dim>10</dim>
					<dim>10</dim>
				</port>
			</output>
		</layer>
		<layer id="148" name="325/Output_0/Data__const" type="Const" version="opset1">
			<data element_type="f32" offset="12800616" shape="8,1024,1,1" size="32768"/>
			<output>
				<port id="1" precision="FP32">
					<dim>8</dim>
					<dim>1024</dim>
					<dim>1</dim>
					<dim>1</dim>
				</port>
			</output>
		</layer>
		<layer id="149" name="conv13_mbox_loc/WithoutBiases" type="Convolution" version="opset1">
			<data dilations="1,1" output_padding="0,0" pads_begin="0,0" pads_end="0,0" strides="1,1"/>
			<input>
				<port id="0">
					<dim>1</dim>
					<dim>1024</dim>
					<dim>10</dim>
					<dim>10</dim>
				</port>
				<port id="1">
					<dim>8</dim>
					<dim>1024</dim>
					<dim>1</dim>
					<dim>1</dim>
				</port>
			</input>
			<output>
				<port id="2" precision="FP32">
					<dim>1</dim>
					<dim>8</dim>
					<dim>10</dim>
					<dim>10</dim>
				</port>
			</output>
		</layer>
		<layer id="150" name="conv13_mbox_loc/Dims5575/copy_const" type="Const" version="opset1">
			<data element_type="f32" offset="12833384" shape="1,8,1,1" size="32"/>
			<output>
				<port id="1" precision="FP32">
					<dim>1</dim>
					<dim>8</dim>
					<dim>1</dim>
					<dim>1</dim>
				</port>
			</output>
		</layer>
		<layer id="151" name="conv13_mbox_loc" type="Add" version="opset1">
			<input>
				<port id="0">
					<dim>1</dim>
					<dim>8</dim>
					<dim>10</dim>
					<dim>10</dim>
				</port>
				<port id="1">
					<dim>1</dim>
					<dim>8</dim>
					<dim>1</dim>
					<dim>1</dim>
				</port>
			</input>
			<output>
				<port id="2" precision="FP32">
					<dim>1</dim>
					<dim>8</dim>
					<dim>10</dim>
					<dim>10</dim>
				</port>
			</output>
		</layer>
		<layer id="152" name="conv13_mbox_loc_perm/Cast_115457_const" type="Const" version="opset1">
			<data element_type="i64" offset="6439480" shape="4" size="32"/>
			<output>
				<port id="1" precision="I64">
					<dim>4</dim>
				</port>
			</output>
		</layer>
		<layer id="153" name="conv13_mbox_loc_perm" type="Transpose" version="opset1">
			<input>
				<port id="0">
					<dim>1</dim>
					<dim>8</dim>
					<dim>10</dim>
					<dim>10</dim>
				</port>
				<port id="1">
					<dim>4</dim>
				</port>
			</input>
			<output>
				<port id="2" precision="FP32">
					<dim>1</dim>
					<dim>10</dim>
					<dim>10</dim>
					<dim>8</dim>
				</port>
			</output>
		</layer>
		<layer id="154" name="conv13_mbox_loc_flat/Cast_115453_const" type="Const" version="opset1">
			<data element_type="i64" offset="6439512" shape="2" size="16"/>
			<output>
				<port id="1" precision="I64">
					<dim>2</dim>
				</port>
			</output>
		</layer>
		<layer id="155" name="conv13_mbox_loc_flat" type="Reshape" version="opset1">
			<data special_zero="True"/>
			<input>
				<port id="0">
					<dim>1</dim>
					<dim>10</dim>
					<dim>10</dim>
					<dim>8</dim>
				</port>
				<port id="1">
					<dim>2</dim>
				</port>
			</input>
			<output>
				<port id="2" precision="FP32">
					<dim>1</dim>
					<dim>800</dim>
				</port>
			</output>
		</layer>
		<layer id="156" name="conv14_1/bn/mean/Fused_Mul_99139915_const" type="Const" version="opset1">
			<data element_type="f32" offset="12833416" shape="256,1024,1,1" size="1048576"/>
			<output>
				<port id="1" precision="FP32">
					<dim>256</dim>
					<dim>1024</dim>
					<dim>1</dim>
					<dim>1</dim>
				</port>
			</output>
		</layer>
		<layer id="157" name="conv14_1" type="Convolution" version="opset1">
			<data dilations="1,1" output_padding="0,0" pads_begin="0,0" pads_end="0,0" strides="1,1"/>
			<input>
				<port id="0">
					<dim>1</dim>
					<dim>1024</dim>
					<dim>10</dim>
					<dim>10</dim>
				</port>
				<port id="1">
					<dim>256</dim>
					<dim>1024</dim>
					<dim>1</dim>
					<dim>1</dim>
				</port>
			</input>
			<output>
				<port id="2" precision="FP32">
					<dim>1</dim>
					<dim>256</dim>
					<dim>10</dim>
					<dim>10</dim>
				</port>
			</output>
		</layer>
		<layer id="158" name="data_add_93439348/copy_const" type="Const" version="opset1">
			<data element_type="f32" offset="13881992" shape="1,256,1,1" size="1024"/>
			<output>
				<port id="1" precision="FP32">
					<dim>1</dim>
					<dim>256</dim>
					<dim>1</dim>
					<dim>1</dim>
				</port>
			</output>
		</layer>
		<layer id="159" name="conv14_1/bn/variance/Fused_Add_" type="Add" version="opset1">
			<input>
				<port id="0">
					<dim>1</dim>
					<dim>256</dim>
					<dim>10</dim>
					<dim>10</dim>
				</port>
				<port id="1">
					<dim>1</dim>
					<dim>256</dim>
					<dim>1</dim>
					<dim>1</dim>
				</port>
			</input>
			<output>
				<port id="2" precision="FP32">
					<dim>1</dim>
					<dim>256</dim>
					<dim>10</dim>
					<dim>10</dim>
				</port>
			</output>
		</layer>
		<layer id="160" name="conv14_1/relu" type="ReLU" version="opset1">
			<input>
				<port id="0">
					<dim>1</dim>
					<dim>256</dim>
					<dim>10</dim>
					<dim>10</dim>
				</port>
			</input>
			<output>
				<port id="1" precision="FP32">
					<dim>1</dim>
					<dim>256</dim>
					<dim>10</dim>
					<dim>10</dim>
				</port>
			</output>
		</layer>
		<layer id="161" name="conv14_2/bn/mean/Fused_Mul_99179919_const" type="Const" version="opset1">
			<data element_type="f32" offset="13883016" shape="512,256,3,3" size="4718592"/>
			<output>
				<port id="1" precision="FP32">
					<dim>512</dim>
					<dim>256</dim>
					<dim>3</dim>
					<dim>3</dim>
				</port>
			</output>
		</layer>
		<layer id="162" name="conv14_2" type="Convolution" version="opset1">
			<data dilations="1,1" output_padding="0,0" pads_begin="1,1" pads_end="1,1" strides="2,2"/>
			<input>
				<port id="0">
					<dim>1</dim>
					<dim>256</dim>
					<dim>10</dim>
					<dim>10</dim>
				</port>
				<port id="1">
					<dim>512</dim>
					<dim>256</dim>
					<dim>3</dim>
					<dim>3</dim>
				</port>
			</input>
			<output>
				<port id="2" precision="FP32">
					<dim>1</dim>
					<dim>512</dim>
					<dim>5</dim>
					<dim>5</dim>
				</port>
			</output>
		</layer>
		<layer id="163" name="data_add_93519356/copy_const" type="Const" version="opset1">
			<data element_type="f32" offset="18601608" shape="1,512,1,1" size="2048"/>
			<output>
				<port id="1" precision="FP32">
					<dim>1</dim>
					<dim>512</dim>
					<dim>1</dim>
					<dim>1</dim>
				</port>
			</output>
		</layer>
		<layer id="164" name="conv14_2/bn/variance/Fused_Add_" type="Add" version="opset1">
			<input>
				<port id="0">
					<dim>1</dim>
					<dim>512</dim>
					<dim>5</dim>
					<dim>5</dim>
				</port>
				<port id="1">
					<dim>1</dim>
					<dim>512</dim>
					<dim>1</dim>
					<dim>1</dim>
				</port>
			</input>
			<output>
				<port id="2" precision="FP32">
					<dim>1</dim>
					<dim>512</dim>
					<dim>5</dim>
					<dim>5</dim>
				</port>
			</output>
		</layer>
		<layer id="165" name="conv14_2/relu" type="ReLU" version="opset1">
			<input>
				<port id="0">
					<dim>1</dim>
					<dim>512</dim>
					<dim>5</dim>
					<dim>5</dim>
				</port>
			</input>
			<output>
				<port id="1" precision="FP32">
					<dim>1</dim>
					<dim>512</dim>
					<dim>5</dim>
					<dim>5</dim>
				</port>
			</output>
		</layer>
		<layer id="166" name="454/Output_0/Data__const" type="Const" version="opset1">
			<data element_type="f32" offset="18603656" shape="8,512,1,1" size="16384"/>
			<output>
				<port id="1" precision="FP32">
					<dim>8</dim>
					<dim>512</dim>
					<dim>1</dim>
					<dim>1</dim>
				</port>
			</output>
		</layer>
		<layer id="167" name="conv14_2_mbox_loc/WithoutBiases" type="Convolution" version="opset1">
			<data dilations="1,1" output_padding="0,0" pads_begin="0,0" pads_end="0,0" strides="1,1"/>
			<input>
				<port id="0">
					<dim>1</dim>
					<dim>512</dim>
					<dim>5</dim>
					<dim>5</dim>
				</port>
				<port id="1">
					<dim>8</dim>
					<dim>512</dim>
					<dim>1</dim>
					<dim>1</dim>
				</port>
			</input>
			<output>
				<port id="2" precision="FP32">
					<dim>1</dim>
					<dim>8</dim>
					<dim>5</dim>
					<dim>5</dim>
				</port>
			</output>
		</layer>
		<layer id="168" name="conv14_2_mbox_loc/Dims5587/copy_const" type="Const" version="opset1">
			<data element_type="f32" offset="18620040" shape="1,8,1,1" size="32"/>
			<output>
				<port id="1" precision="FP32">
					<dim>1</dim>
					<dim>8</dim>
					<dim>1</dim>
					<dim>1</dim>
				</port>
			</output>
		</layer>
		<layer id="169" name="conv14_2_mbox_loc" type="Add" version="opset1">
			<input>
				<port id="0">
					<dim>1</dim>
					<dim>8</dim>
					<dim>5</dim>
					<dim>5</dim>
				</port>
				<port id="1">
					<dim>1</dim>
					<dim>8</dim>
					<dim>1</dim>
					<dim>1</dim>
				</port>
			</input>
			<output>
				<port id="2" precision="FP32">
					<dim>1</dim>
					<dim>8</dim>
					<dim>5</dim>
					<dim>5</dim>
				</port>
			</output>
		</layer>
		<layer id="170" name="conv14_2_mbox_loc_perm/Cast_115471_const" type="Const" version="opset1">
			<data element_type="i64" offset="6439480" shape="4" size="32"/>
			<output>
				<port id="1" precision="I64">
					<dim>4</dim>
				</port>
			</output>
		</layer>
		<layer id="171" name="conv14_2_mbox_loc_perm" type="Transpose" version="opset1">
			<input>
				<port id="0">
					<dim>1</dim>
					<dim>8</dim>
					<dim>5</dim>
					<dim>5</dim>
				</port>
				<port id="1">
					<dim>4</dim>
				</port>
			</input>
			<output>
				<port id="2" precision="FP32">
					<dim>1</dim>
					<dim>5</dim>
					<dim>5</dim>
					<dim>8</dim>
				</port>
			</output>
		</layer>
		<layer id="172" name="conv14_2_mbox_loc_flat/Cast_115539_const" type="Const" version="opset1">
			<data element_type="i64" offset="6439512" shape="2" size="16"/>
			<output>
				<port id="1" precision="I64">
					<dim>2</dim>
				</port>
			</output>
		</layer>
		<layer id="173" name="conv14_2_mbox_loc_flat" type="Reshape" version="opset1">
			<data special_zero="True"/>
			<input>
				<port id="0">
					<dim>1</dim>
					<dim>5</dim>
					<dim>5</dim>
					<dim>8</dim>
				</port>
				<port id="1">
					<dim>2</dim>
				</port>
			</input>
			<output>
				<port id="2" precision="FP32">
					<dim>1</dim>
					<dim>200</dim>
				</port>
			</output>
		</layer>
		<layer id="174" name="conv15_1/bn/mean/Fused_Mul_99219923_const" type="Const" version="opset1">
			<data element_type="f32" offset="18620072" shape="128,512,1,1" size="262144"/>
			<output>
				<port id="1" precision="FP32">
					<dim>128</dim>
					<dim>512</dim>
					<dim>1</dim>
					<dim>1</dim>
				</port>
			</output>
		</layer>
		<layer id="175" name="conv15_1" type="Convolution" version="opset1">
			<data dilations="1,1" output_padding="0,0" pads_begin="0,0" pads_end="0,0" strides="1,1"/>
			<input>
				<port id="0">
					<dim>1</dim>
					<dim>512</dim>
					<dim>5</dim>
					<dim>5</dim>
				</port>
				<port id="1">
					<dim>128</dim>
					<dim>512</dim>
					<dim>1</dim>
					<dim>1</dim>
				</port>
			</input>
			<output>
				<port id="2" precision="FP32">
					<dim>1</dim>
					<dim>128</dim>
					<dim>5</dim>
					<dim>5</dim>
				</port>
			</output>
		</layer>
		<layer id="176" name="data_add_93599364/copy_const" type="Const" version="opset1">
			<data element_type="f32" offset="18882216" shape="1,128,1,1" size="512"/>
			<output>
				<port id="1" precision="FP32">
					<dim>1</dim>
					<dim>128</dim>
					<dim>1</dim>
					<dim>1</dim>
				</port>
			</output>
		</layer>
		<layer id="177" name="conv15_1/bn/variance/Fused_Add_" type="Add" version="opset1">
			<input>
				<port id="0">
					<dim>1</dim>
					<dim>128</dim>
					<dim>5</dim>
					<dim>5</dim>
				</port>
				<port id="1">
					<dim>1</dim>
					<dim>128</dim>
					<dim>1</dim>
					<dim>1</dim>
				</port>
			</input>
			<output>
				<port id="2" precision="FP32">
					<dim>1</dim>
					<dim>128</dim>
					<dim>5</dim>
					<dim>5</dim>
				</port>
			</output>
		</layer>
		<layer id="178" name="conv15_1/relu" type="ReLU" version="opset1">
			<input>
				<port id="0">
					<dim>1</dim>
					<dim>128</dim>
					<dim>5</dim>
					<dim>5</dim>
				</port>
			</input>
			<output>
				<port id="1" precision="FP32">
					<dim>1</dim>
					<dim>128</dim>
					<dim>5</dim>
					<dim>5</dim>
				</port>
			</output>
		</layer>
		<layer id="179" name="conv15_2/bn/mean/Fused_Mul_99259927_const" type="Const" version="opset1">
			<data element_type="f32" offset="18882728" shape="256,128,3,3" size="1179648"/>
			<output>
				<port id="1" precision="FP32">
					<dim>256</dim>
					<dim>128</dim>
					<dim>3</dim>
					<dim>3</dim>
				</port>
			</output>
		</layer>
		<layer id="180" name="conv15_2" type="Convolution" version="opset1">
			<data dilations="1,1" output_padding="0,0" pads_begin="1,1" pads_end="1,1" strides="2,2"/>
			<input>
				<port id="0">
					<dim>1</dim>
					<dim>128</dim>
					<dim>5</dim>
					<dim>5</dim>
				</port>
				<port id="1">
					<dim>256</dim>
					<dim>128</dim>
					<dim>3</dim>
					<dim>3</dim>
				</port>
			</input>
			<output>
				<port id="2" precision="FP32">
					<dim>1</dim>
					<dim>256</dim>
					<dim>3</dim>
					<dim>3</dim>
				</port>
			</output>
		</layer>
		<layer id="181" name="data_add_93679372/copy_const" type="Const" version="opset1">
			<data element_type="f32" offset="20062376" shape="1,256,1,1" size="1024"/>
			<output>
				<port id="1" precision="FP32">
					<dim>1</dim>
					<dim>256</dim>
					<dim>1</dim>
					<dim>1</dim>
				</port>
			</output>
		</layer>
		<layer id="182" name="conv15_2/bn/variance/Fused_Add_" type="Add" version="opset1">
			<input>
				<port id="0">
					<dim>1</dim>
					<dim>256</dim>
					<dim>3</dim>
					<dim>3</dim>
				</port>
				<port id="1">
					<dim>1</dim>
					<dim>256</dim>
					<dim>1</dim>
					<dim>1</dim>
				</port>
			</input>
			<output>
				<port id="2" precision="FP32">
					<dim>1</dim>
					<dim>256</dim>
					<dim>3</dim>
					<dim>3</dim>
				</port>
			</output>
		</layer>
		<layer id="183" name="conv15_2/relu" type="ReLU" version="opset1">
			<input>
				<port id="0">
					<dim>1</dim>
					<dim>256</dim>
					<dim>3</dim>
					<dim>3</dim>
				</port>
			</input>
			<output>
				<port id="1" precision="FP32">
					<dim>1</dim>
					<dim>256</dim>
					<dim>3</dim>
					<dim>3</dim>
				</port>
			</output>
		</layer>
		<layer id="184" name="408/Output_0/Data__const" type="Const" version="opset1">
			<data element_type="f32" offset="20063400" shape="8,256,1,1" size="8192"/>
			<output>
				<port id="1" precision="FP32">
					<dim>8</dim>
					<dim>256</dim>
					<dim>1</dim>
					<dim>1</dim>
				</port>
			</output>
		</layer>
		<layer id="185" name="conv15_2_mbox_loc/WithoutBiases" type="Convolution" version="opset1">
			<data dilations="1,1" output_padding="0,0" pads_begin="0,0" pads_end="0,0" strides="1,1"/>
			<input>
				<port id="0">
					<dim>1</dim>
					<dim>256</dim>
					<dim>3</dim>
					<dim>3</dim>
				</port>
				<port id="1">
					<dim>8</dim>
					<dim>256</dim>
					<dim>1</dim>
					<dim>1</dim>
				</port>
			</input>
			<output>
				<port id="2" precision="FP32">
					<dim>1</dim>
					<dim>8</dim>
					<dim>3</dim>
					<dim>3</dim>
				</port>
			</output>
		</layer>
		<layer id="186" name="conv15_2_mbox_loc/Dims5563/copy_const" type="Const" version="opset1">
			<data element_type="f32" offset="20071592" shape="1,8,1,1" size="32"/>
			<output>
				<port id="1" precision="FP32">
					<dim>1</dim>
					<dim>8</dim>
					<dim>1</dim>
					<dim>1</dim>
				</port>
			</output>
		</layer>
		<layer id="187" name="conv15_2_mbox_loc" type="Add" version="opset1">
			<input>
				<port id="0">
					<dim>1</dim>
					<dim>8</dim>
					<dim>3</dim>
					<dim>3</dim>
				</port>
				<port id="1">
					<dim>1</dim>
					<dim>8</dim>
					<dim>1</dim>
					<dim>1</dim>
				</port>
			</input>
			<output>
				<port id="2" precision="FP32">
					<dim>1</dim>
					<dim>8</dim>
					<dim>3</dim>
					<dim>3</dim>
				</port>
			</output>
		</layer>
		<layer id="188" name="conv15_2_mbox_loc_perm/Cast_115463_const" type="Const" version="opset1">
			<data element_type="i64" offset="6439480" shape="4" size="32"/>
			<output>
				<port id="1" precision="I64">
					<dim>4</dim>
				</port>
			</output>
		</layer>
		<layer id="189" name="conv15_2_mbox_loc_perm" type="Transpose" version="opset1">
			<input>
				<port id="0">
					<dim>1</dim>
					<dim>8</dim>
					<dim>3</dim>
					<dim>3</dim>
				</port>
				<port id="1">
					<dim>4</dim>
				</port>
			</input>
			<output>
				<port id="2" precision="FP32">
					<dim>1</dim>
					<dim>3</dim>
					<dim>3</dim>
					<dim>8</dim>
				</port>
			</output>
		</layer>
		<layer id="190" name="conv15_2_mbox_loc_flat/Cast_115443_const" type="Const" version="opset1">
			<data element_type="i64" offset="6439512" shape="2" size="16"/>
			<output>
				<port id="1" precision="I64">
					<dim>2</dim>
				</port>
			</output>
		</layer>
		<layer id="191" name="conv15_2_mbox_loc_flat" type="Reshape" version="opset1">
			<data special_zero="True"/>
			<input>
				<port id="0">
					<dim>1</dim>
					<dim>3</dim>
					<dim>3</dim>
					<dim>8</dim>
				</port>
				<port id="1">
					<dim>2</dim>
				</port>
			</input>
			<output>
				<port id="2" precision="FP32">
					<dim>1</dim>
					<dim>72</dim>
				</port>
			</output>
		</layer>
		<layer id="192" name="conv16_1/bn/mean/Fused_Mul_99299931_const" type="Const" version="opset1">
			<data element_type="f32" offset="20071624" shape="128,256,1,1" size="131072"/>
			<output>
				<port id="1" precision="FP32">
					<dim>128</dim>
					<dim>256</dim>
					<dim>1</dim>
					<dim>1</dim>
				</port>
			</output>
		</layer>
		<layer id="193" name="conv16_1" type="Convolution" version="opset1">
			<data dilations="1,1" output_padding="0,0" pads_begin="0,0" pads_end="0,0" strides="1,1"/>
			<input>
				<port id="0">
					<dim>1</dim>
					<dim>256</dim>
					<dim>3</dim>
					<dim>3</dim>
				</port>
				<port id="1">
					<dim>128</dim>
					<dim>256</dim>
					<dim>1</dim>
					<dim>1</dim>
				</port>
			</input>
			<output>
				<port id="2" precision="FP32">
					<dim>1</dim>
					<dim>128</dim>
					<dim>3</dim>
					<dim>3</dim>
				</port>
			</output>
		</layer>
		<layer id="194" name="data_add_93759380/copy_const" type="Const" version="opset1">
			<data element_type="f32" offset="20202696" shape="1,128,1,1" size="512"/>
			<output>
				<port id="1" precision="FP32">
					<dim>1</dim>
					<dim>128</dim>
					<dim>1</dim>
					<dim>1</dim>
				</port>
			</output>
		</layer>
		<layer id="195" name="conv16_1/bn/variance/Fused_Add_" type="Add" version="opset1">
			<input>
				<port id="0">
					<dim>1</dim>
					<dim>128</dim>
					<dim>3</dim>
					<dim>3</dim>
				</port>
				<port id="1">
					<dim>1</dim>
					<dim>128</dim>
					<dim>1</dim>
					<dim>1</dim>
				</port>
			</input>
			<output>
				<port id="2" precision="FP32">
					<dim>1</dim>
					<dim>128</dim>
					<dim>3</dim>
					<dim>3</dim>
				</port>
			</output>
		</layer>
		<layer id="196" name="conv16_1/relu" type="ReLU" version="opset1">
			<input>
				<port id="0">
					<dim>1</dim>
					<dim>128</dim>
					<dim>3</dim>
					<dim>3</dim>
				</port>
			</input>
			<output>
				<port id="1" precision="FP32">
					<dim>1</dim>
					<dim>128</dim>
					<dim>3</dim>
					<dim>3</dim>
				</port>
			</output>
		</layer>
		<layer id="197" name="conv16_2/bn/mean/Fused_Mul_99339935_const" type="Const" version="opset1">
			<data element_type="f32" offset="20203208" shape="256,128,3,3" size="1179648"/>
			<output>
				<port id="1" precision="FP32">
					<dim>256</dim>
					<dim>128</dim>
					<dim>3</dim>
					<dim>3</dim>
				</port>
			</output>
		</layer>
		<layer id="198" name="conv16_2" type="Convolution" version="opset1">
			<data dilations="1,1" output_padding="0,0" pads_begin="1,1" pads_end="1,1" strides="2,2"/>
			<input>
				<port id="0">
					<dim>1</dim>
					<dim>128</dim>
					<dim>3</dim>
					<dim>3</dim>
				</port>
				<port id="1">
					<dim>256</dim>
					<dim>128</dim>
					<dim>3</dim>
					<dim>3</dim>
				</port>
			</input>
			<output>
				<port id="2" precision="FP32">
					<dim>1</dim>
					<dim>256</dim>
					<dim>2</dim>
					<dim>2</dim>
				</port>
			</output>
		</layer>
		<layer id="199" name="data_add_93839388/copy_const" type="Const" version="opset1">
			<data element_type="f32" offset="21382856" shape="1,256,1,1" size="1024"/>
			<output>
				<port id="1" precision="FP32">
					<dim>1</dim>
					<dim>256</dim>
					<dim>1</dim>
					<dim>1</dim>
				</port>
			</output>
		</layer>
		<layer id="200" name="conv16_2/bn/variance/Fused_Add_" type="Add" version="opset1">
			<input>
				<port id="0">
					<dim>1</dim>
					<dim>256</dim>
					<dim>2</dim>
					<dim>2</dim>
				</port>
				<port id="1">
					<dim>1</dim>
					<dim>256</dim>
					<dim>1</dim>
					<dim>1</dim>
				</port>
			</input>
			<output>
				<port id="2" precision="FP32">
					<dim>1</dim>
					<dim>256</dim>
					<dim>2</dim>
					<dim>2</dim>
				</port>
			</output>
		</layer>
		<layer id="201" name="conv16_2/relu" type="ReLU" version="opset1">
			<input>
				<port id="0">
					<dim>1</dim>
					<dim>256</dim>
					<dim>2</dim>
					<dim>2</dim>
				</port>
			</input>
			<output>
				<port id="1" precision="FP32">
					<dim>1</dim>
					<dim>256</dim>
					<dim>2</dim>
					<dim>2</dim>
				</port>
			</output>
		</layer>
		<layer id="202" name="282/Output_0/Data__const" type="Const" version="opset1">
			<data element_type="f32" offset="21383880" shape="8,256,1,1" size="8192"/>
			<output>
				<port id="1" precision="FP32">
					<dim>8</dim>
					<dim>256</dim>
					<dim>1</dim>
					<dim>1</dim>
				</port>
			</output>
		</layer>
		<layer id="203" name="conv16_2_mbox_loc/WithoutBiases" type="Convolution" version="opset1">
			<data dilations="1,1" output_padding="0,0" pads_begin="0,0" pads_end="0,0" strides="1,1"/>
			<input>
				<port id="0">
					<dim>1</dim>
					<dim>256</dim>
					<dim>2</dim>
					<dim>2</dim>
				</port>
				<port id="1">
					<dim>8</dim>
					<dim>256</dim>
					<dim>1</dim>
					<dim>1</dim>
				</port>
			</input>
			<output>
				<port id="2" precision="FP32">
					<dim>1</dim>
					<dim>8</dim>
					<dim>2</dim>
					<dim>2</dim>
				</port>
			</output>
		</layer>
		<layer id="204" name="conv16_2_mbox_loc/Dims5545/copy_const" type="Const" version="opset1">
			<data element_type="f32" offset="21392072" shape="1,8,1,1" size="32"/>
			<output>
				<port id="1" precision="FP32">
					<dim>1</dim>
					<dim>8</dim>
					<dim>1</dim>
					<dim>1</dim>
				</port>
			</output>
		</layer>
		<layer id="205" name="conv16_2_mbox_loc" type="Add" version="opset1">
			<input>
				<port id="0">
					<dim>1</dim>
					<dim>8</dim>
					<dim>2</dim>
					<dim>2</dim>
				</port>
				<port id="1">
					<dim>1</dim>
					<dim>8</dim>
					<dim>1</dim>
					<dim>1</dim>
				</port>
			</input>
			<output>
				<port id="2" precision="FP32">
					<dim>1</dim>
					<dim>8</dim>
					<dim>2</dim>
					<dim>2</dim>
				</port>
			</output>
		</layer>
		<layer id="206" name="conv16_2_mbox_loc_perm/Cast_115519_const" type="Const" version="opset1">
			<data element_type="i64" offset="6439480" shape="4" size="32"/>
			<output>
				<port id="1" precision="I64">
					<dim>4</dim>
				</port>
			</output>
		</layer>
		<layer id="207" name="conv16_2_mbox_loc_perm" type="Transpose" version="opset1">
			<input>
				<port id="0">
					<dim>1</dim>
					<dim>8</dim>
					<dim>2</dim>
					<dim>2</dim>
				</port>
				<port id="1">
					<dim>4</dim>
				</port>
			</input>
			<output>
				<port id="2" precision="FP32">
					<dim>1</dim>
					<dim>2</dim>
					<dim>2</dim>
					<dim>8</dim>
				</port>
			</output>
		</layer>
		<layer id="208" name="conv16_2_mbox_loc_flat/Cast_115493_const" type="Const" version="opset1">
			<data element_type="i64" offset="6439512" shape="2" size="16"/>
			<output>
				<port id="1" precision="I64">
					<dim>2</dim>
				</port>
			</output>
		</layer>
		<layer id="209" name="conv16_2_mbox_loc_flat" type="Reshape" version="opset1">
			<data special_zero="True"/>
			<input>
				<port id="0">
					<dim>1</dim>
					<dim>2</dim>
					<dim>2</dim>
					<dim>8</dim>
				</port>
				<port id="1">
					<dim>2</dim>
				</port>
			</input>
			<output>
				<port id="2" precision="FP32">
					<dim>1</dim>
					<dim>32</dim>
				</port>
			</output>
		</layer>
		<layer id="210" name="conv17_1/bn/mean/Fused_Mul_99379939_const" type="Const" version="opset1">
			<data element_type="f32" offset="21392104" shape="64,256,1,1" size="65536"/>
			<output>
				<port id="1" precision="FP32">
					<dim>64</dim>
					<dim>256</dim>
					<dim>1</dim>
					<dim>1</dim>
				</port>
			</output>
		</layer>
		<layer id="211" name="conv17_1" type="Convolution" version="opset1">
			<data dilations="1,1" output_padding="0,0" pads_begin="0,0" pads_end="0,0" strides="1,1"/>
			<input>
				<port id="0">
					<dim>1</dim>
					<dim>256</dim>
					<dim>2</dim>
					<dim>2</dim>
				</port>
				<port id="1">
					<dim>64</dim>
					<dim>256</dim>
					<dim>1</dim>
					<dim>1</dim>
				</port>
			</input>
			<output>
				<port id="2" precision="FP32">
					<dim>1</dim>
					<dim>64</dim>
					<dim>2</dim>
					<dim>2</dim>
				</port>
			</output>
		</layer>
		<layer id="212" name="data_add_93919396/copy_const" type="Const" version="opset1">
			<data element_type="f32" offset="21457640" shape="1,64,1,1" size="256"/>
			<output>
				<port id="1" precision="FP32">
					<dim>1</dim>
					<dim>64</dim>
					<dim>1</dim>
					<dim>1</dim>
				</port>
			</output>
		</layer>
		<layer id="213" name="conv17_1/bn/variance/Fused_Add_" type="Add" version="opset1">
			<input>
				<port id="0">
					<dim>1</dim>
					<dim>64</dim>
					<dim>2</dim>
					<dim>2</dim>
				</port>
				<port id="1">
					<dim>1</dim>
					<dim>64</dim>
					<dim>1</dim>
					<dim>1</dim>
				</port>
			</input>
			<output>
				<port id="2" precision="FP32">
					<dim>1</dim>
					<dim>64</dim>
					<dim>2</dim>
					<dim>2</dim>
				</port>
			</output>
		</layer>
		<layer id="214" name="conv17_1/relu" type="ReLU" version="opset1">
			<input>
				<port id="0">
					<dim>1</dim>
					<dim>64</dim>
					<dim>2</dim>
					<dim>2</dim>
				</port>
			</input>
			<output>
				<port id="1" precision="FP32">
					<dim>1</dim>
					<dim>64</dim>
					<dim>2</dim>
					<dim>2</dim>
				</port>
			</output>
		</layer>
		<layer id="215" name="conv17_2/bn/mean/Fused_Mul_99419943_const" type="Const" version="opset1">
			<data element_type="f32" offset="21457896" shape="128,64,3,3" size="294912"/>
			<output>
				<port id="1" precision="FP32">
					<dim>128</dim>
					<dim>64</dim>
					<dim>3</dim>
					<dim>3</dim>
				</port>
			</output>
		</layer>
		<layer id="216" name="conv17_2" type="Convolution" version="opset1">
			<data dilations="1,1" output_padding="0,0" pads_begin="1,1" pads_end="1,1" strides="2,2"/>
			<input>
				<port id="0">
					<dim>1</dim>
					<dim>64</dim>
					<dim>2</dim>
					<dim>2</dim>
				</port>
				<port id="1">
					<dim>128</dim>
					<dim>64</dim>
					<dim>3</dim>
					<dim>3</dim>
				</port>
			</input>
			<output>
				<port id="2" precision="FP32">
					<dim>1</dim>
					<dim>128</dim>
					<dim>1</dim>
					<dim>1</dim>
				</port>
			</output>
		</layer>
		<layer id="217" name="data_add_93999404/copy_const" type="Const" version="opset1">
			<data element_type="f32" offset="21752808" shape="1,128,1,1" size="512"/>
			<output>
				<port id="1" precision="FP32">
					<dim>1</dim>
					<dim>128</dim>
					<dim>1</dim>
					<dim>1</dim>
				</port>
			</output>
		</layer>
		<layer id="218" name="conv17_2/bn/variance/Fused_Add_" type="Add" version="opset1">
			<input>
				<port id="0">
					<dim>1</dim>
					<dim>128</dim>
					<dim>1</dim>
					<dim>1</dim>
				</port>
				<port id="1">
					<dim>1</dim>
					<dim>128</dim>
					<dim>1</dim>
					<dim>1</dim>
				</port>
			</input>
			<output>
				<port id="2" precision="FP32">
					<dim>1</dim>
					<dim>128</dim>
					<dim>1</dim>
					<dim>1</dim>
				</port>
			</output>
		</layer>
		<layer id="219" name="conv17_2/relu" type="ReLU" version="opset1">
			<input>
				<port id="0">
					<dim>1</dim>
					<dim>128</dim>
					<dim>1</dim>
					<dim>1</dim>
				</port>
			</input>
			<output>
				<port id="1" precision="FP32">
					<dim>1</dim>
					<dim>128</dim>
					<dim>1</dim>
					<dim>1</dim>
				</port>
			</output>
		</layer>
		<layer id="220" name="274/Output_0/Data__const" type="Const" version="opset1">
			<data element_type="f32" offset="21753320" shape="8,128,1,1" size="4096"/>
			<output>
				<port id="1" precision="FP32">
					<dim>8</dim>
					<dim>128</dim>
					<dim>1</dim>
					<dim>1</dim>
				</port>
			</output>
		</layer>
		<layer id="221" name="conv17_2_mbox_loc/WithoutBiases" type="Convolution" version="opset1">
			<data dilations="1,1" output_padding="0,0" pads_begin="0,0" pads_end="0,0" strides="1,1"/>
			<input>
				<port id="0">
					<dim>1</dim>
					<dim>128</dim>
					<dim>1</dim>
					<dim>1</dim>
				</port>
				<port id="1">
					<dim>8</dim>
					<dim>128</dim>
					<dim>1</dim>
					<dim>1</dim>
				</port>
			</input>
			<output>
				<port id="2" precision="FP32">
					<dim>1</dim>
					<dim>8</dim>
					<dim>1</dim>
					<dim>1</dim>
				</port>
			</output>
		</layer>
		<layer id="222" name="conv17_2_mbox_loc/Dims5533/copy_const" type="Const" version="opset1">
			<data element_type="f32" offset="21757416" shape="1,8,1,1" size="32"/>
			<output>
				<port id="1" precision="FP32">
					<dim>1</dim>
					<dim>8</dim>
					<dim>1</dim>
					<dim>1</dim>
				</port>
			</output>
		</layer>
		<layer id="223" name="conv17_2_mbox_loc" type="Add" version="opset1">
			<input>
				<port id="0">
					<dim>1</dim>
					<dim>8</dim>
					<dim>1</dim>
					<dim>1</dim>
				</port>
				<port id="1">
					<dim>1</dim>
					<dim>8</dim>
					<dim>1</dim>
					<dim>1</dim>
				</port>
			</input>
			<output>
				<port id="2" precision="FP32">
					<dim>1</dim>
					<dim>8</dim>
					<dim>1</dim>
					<dim>1</dim>
				</port>
			</output>
		</layer>
		<layer id="224" name="conv17_2_mbox_loc_perm/Cast_115479_const" type="Const" version="opset1">
			<data element_type="i64" offset="6439480" shape="4" size="32"/>
			<output>
				<port id="1" precision="I64">
					<dim>4</dim>
				</port>
			</output>
		</layer>
		<layer id="225" name="conv17_2_mbox_loc_perm" type="Transpose" version="opset1">
			<input>
				<port id="0">
					<dim>1</dim>
					<dim>8</dim>
					<dim>1</dim>
					<dim>1</dim>
				</port>
				<port id="1">
					<dim>4</dim>
				</port>
			</input>
			<output>
				<port id="2" precision="FP32">
					<dim>1</dim>
					<dim>1</dim>
					<dim>1</dim>
					<dim>8</dim>
				</port>
			</output>
		</layer>
		<layer id="226" name="conv17_2_mbox_loc_flat/Cast_115517_const" type="Const" version="opset1">
			<data element_type="i64" offset="6439512" shape="2" size="16"/>
			<output>
				<port id="1" precision="I64">
					<dim>2</dim>
				</port>
			</output>
		</layer>
		<layer id="227" name="conv17_2_mbox_loc_flat" type="Reshape" version="opset1">
			<data special_zero="True"/>
			<input>
				<port id="0">
					<dim>1</dim>
					<dim>1</dim>
					<dim>1</dim>
					<dim>8</dim>
				</port>
				<port id="1">
					<dim>2</dim>
				</port>
			</input>
			<output>
				<port id="2" precision="FP32">
					<dim>1</dim>
					<dim>8</dim>
				</port>
			</output>
		</layer>
		<layer id="228" name="mbox_loc" type="Concat" version="opset1">
			<data axis="1"/>
			<input>
				<port id="0">
					<dim>1</dim>
					<dim>2888</dim>
				</port>
				<port id="1">
					<dim>1</dim>
					<dim>800</dim>
				</port>
				<port id="2">
					<dim>1</dim>
					<dim>200</dim>
				</port>
				<port id="3">
					<dim>1</dim>
					<dim>72</dim>
				</port>
				<port id="4">
					<dim>1</dim>
					<dim>32</dim>
				</port>
				<port id="5">
					<dim>1</dim>
					<dim>8</dim>
				</port>
			</input>
			<output>
				<port id="6" precision="FP32">
					<dim>1</dim>
					<dim>4000</dim>
				</port>
			</output>
		</layer>
		<layer id="229" name="356/Output_0/Data__const" type="Const" version="opset1">
			<data element_type="f32" offset="21757448" shape="4,512,1,1" size="8192"/>
			<output>
				<port id="1" precision="FP32">
					<dim>4</dim>
					<dim>512</dim>
					<dim>1</dim>
					<dim>1</dim>
				</port>
			</output>
		</layer>
		<layer id="230" name="conv11_mbox_conf/WithoutBiases" type="Convolution" version="opset1">
			<data dilations="1,1" output_padding="0,0" pads_begin="0,0" pads_end="0,0" strides="1,1"/>
			<input>
				<port id="0">
					<dim>1</dim>
					<dim>512</dim>
					<dim>19</dim>
					<dim>19</dim>
				</port>
				<port id="1">
					<dim>4</dim>
					<dim>512</dim>
					<dim>1</dim>
					<dim>1</dim>
				</port>
			</input>
			<output>
				<port id="2" precision="FP32">
					<dim>1</dim>
					<dim>4</dim>
					<dim>19</dim>
					<dim>19</dim>
				</port>
			</output>
		</layer>
		<layer id="231" name="conv11_mbox_conf/Dims5557/copy_const" type="Const" version="opset1">
			<data element_type="f32" offset="21765640" shape="1,4,1,1" size="16"/>
			<output>
				<port id="1" precision="FP32">
					<dim>1</dim>
					<dim>4</dim>
					<dim>1</dim>
					<dim>1</dim>
				</port>
			</output>
		</layer>
		<layer id="232" name="conv11_mbox_conf" type="Add" version="opset1">
			<input>
				<port id="0">
					<dim>1</dim>
					<dim>4</dim>
					<dim>19</dim>
					<dim>19</dim>
				</port>
				<port id="1">
					<dim>1</dim>
					<dim>4</dim>
					<dim>1</dim>
					<dim>1</dim>
				</port>
			</input>
			<output>
				<port id="2" precision="FP32">
					<dim>1</dim>
					<dim>4</dim>
					<dim>19</dim>
					<dim>19</dim>
				</port>
			</output>
		</layer>
		<layer id="233" name="conv11_mbox_conf_perm/Cast_115441_const" type="Const" version="opset1">
			<data element_type="i64" offset="6439480" shape="4" size="32"/>
			<output>
				<port id="1" precision="I64">
					<dim>4</dim>
				</port>
			</output>
		</layer>
		<layer id="234" name="conv11_mbox_conf_perm" type="Transpose" version="opset1">
			<input>
				<port id="0">
					<dim>1</dim>
					<dim>4</dim>
					<dim>19</dim>
					<dim>19</dim>
				</port>
				<port id="1">
					<dim>4</dim>
				</port>
			</input>
			<output>
				<port id="2" precision="FP32">
					<dim>1</dim>
					<dim>19</dim>
					<dim>19</dim>
					<dim>4</dim>
				</port>
			</output>
		</layer>
		<layer id="235" name="conv11_mbox_conf_flat/Cast_115495_const" type="Const" version="opset1">
			<data element_type="i64" offset="6439512" shape="2" size="16"/>
			<output>
				<port id="1" precision="I64">
					<dim>2</dim>
				</port>
			</output>
		</layer>
		<layer id="236" name="conv11_mbox_conf_flat" type="Reshape" version="opset1">
			<data special_zero="True"/>
			<input>
				<port id="0">
					<dim>1</dim>
					<dim>19</dim>
					<dim>19</dim>
					<dim>4</dim>
				</port>
				<port id="1">
					<dim>2</dim>
				</port>
			</input>
			<output>
				<port id="2" precision="FP32">
					<dim>1</dim>
					<dim>1444</dim>
				</port>
			</output>
		</layer>
		<layer id="237" name="218/Output_0/Data__const" type="Const" version="opset1">
			<data element_type="f32" offset="21765656" shape="4,1024,1,1" size="16384"/>
			<output>
				<port id="1" precision="FP32">
					<dim>4</dim>
					<dim>1024</dim>
					<dim>1</dim>
					<dim>1</dim>
				</port>
			</output>
		</layer>
		<layer id="238" name="conv13_mbox_conf/WithoutBiases" type="Convolution" version="opset1">
			<data dilations="1,1" output_padding="0,0" pads_begin="0,0" pads_end="0,0" strides="1,1"/>
			<input>
				<port id="0">
					<dim>1</dim>
					<dim>1024</dim>
					<dim>10</dim>
					<dim>10</dim>
				</port>
				<port id="1">
					<dim>4</dim>
					<dim>1024</dim>
					<dim>1</dim>
					<dim>1</dim>
				</port>
			</input>
			<output>
				<port id="2" precision="FP32">
					<dim>1</dim>
					<dim>4</dim>
					<dim>10</dim>
					<dim>10</dim>
				</port>
			</output>
		</layer>
		<layer id="239" name="conv13_mbox_conf/Dims5527/copy_const" type="Const" version="opset1">
			<data element_type="f32" offset="21782040" shape="1,4,1,1" size="16"/>
			<output>
				<port id="1" precision="FP32">
					<dim>1</dim>
					<dim>4</dim>
					<dim>1</dim>
					<dim>1</dim>
				</port>
			</output>
		</layer>
		<layer id="240" name="conv13_mbox_conf" type="Add" version="opset1">
			<input>
				<port id="0">
					<dim>1</dim>
					<dim>4</dim>
					<dim>10</dim>
					<dim>10</dim>
				</port>
				<port id="1">
					<dim>1</dim>
					<dim>4</dim>
					<dim>1</dim>
					<dim>1</dim>
				</port>
			</input>
			<output>
				<port id="2" precision="FP32">
					<dim>1</dim>
					<dim>4</dim>
					<dim>10</dim>
					<dim>10</dim>
				</port>
			</output>
		</layer>
		<layer id="241" name="conv13_mbox_conf_perm/Cast_115527_const" type="Const" version="opset1">
			<data element_type="i64" offset="6439480" shape="4" size="32"/>
			<output>
				<port id="1" precision="I64">
					<dim>4</dim>
				</port>
			</output>
		</layer>
		<layer id="242" name="conv13_mbox_conf_perm" type="Transpose" version="opset1">
			<input>
				<port id="0">
					<dim>1</dim>
					<dim>4</dim>
					<dim>10</dim>
					<dim>10</dim>
				</port>
				<port id="1">
					<dim>4</dim>
				</port>
			</input>
			<output>
				<port id="2" precision="FP32">
					<dim>1</dim>
					<dim>10</dim>
					<dim>10</dim>
					<dim>4</dim>
				</port>
			</output>
		</layer>
		<layer id="243" name="conv13_mbox_conf_flat/Cast_115515_const" type="Const" version="opset1">
			<data element_type="i64" offset="6439512" shape="2" size="16"/>
			<output>
				<port id="1" precision="I64">
					<dim>2</dim>
				</port>
			</output>
		</layer>
		<layer id="244" name="conv13_mbox_conf_flat" type="Reshape" version="opset1">
			<data special_zero="True"/>
			<input>
				<port id="0">
					<dim>1</dim>
					<dim>10</dim>
					<dim>10</dim>
					<dim>4</dim>
				</port>
				<port id="1">
					<dim>2</dim>
				</port>
			</input>
			<output>
				<port id="2" precision="FP32">
					<dim>1</dim>
					<dim>400</dim>
				</port>
			</output>
		</layer>
		<layer id="245" name="348/Output_0/Data__const" type="Const" version="opset1">
			<data element_type="f32" offset="21782056" shape="4,512,1,1" size="8192"/>
			<output>
				<port id="1" precision="FP32">
					<dim>4</dim>
					<dim>512</dim>
					<dim>1</dim>
					<dim>1</dim>
				</port>
			</output>
		</layer>
		<layer id="246" name="conv14_2_mbox_conf/WithoutBiases" type="Convolution" version="opset1">
			<data dilations="1,1" output_padding="0,0" pads_begin="0,0" pads_end="0,0" strides="1,1"/>
			<input>
				<port id="0">
					<dim>1</dim>
					<dim>512</dim>
					<dim>5</dim>
					<dim>5</dim>
				</port>
				<port id="1">
					<dim>4</dim>
					<dim>512</dim>
					<dim>1</dim>
					<dim>1</dim>
				</port>
			</input>
			<output>
				<port id="2" precision="FP32">
					<dim>1</dim>
					<dim>4</dim>
					<dim>5</dim>
					<dim>5</dim>
				</port>
			</output>
		</layer>
		<layer id="247" name="conv14_2_mbox_conf/Dims5581/copy_const" type="Const" version="opset1">
			<data element_type="f32" offset="21790248" shape="1,4,1,1" size="16"/>
			<output>
				<port id="1" precision="FP32">
					<dim>1</dim>
					<dim>4</dim>
					<dim>1</dim>
					<dim>1</dim>
				</port>
			</output>
		</layer>
		<layer id="248" name="conv14_2_mbox_conf" type="Add" version="opset1">
			<input>
				<port id="0">
					<dim>1</dim>
					<dim>4</dim>
					<dim>5</dim>
					<dim>5</dim>
				</port>
				<port id="1">
					<dim>1</dim>
					<dim>4</dim>
					<dim>1</dim>
					<dim>1</dim>
				</port>
			</input>
			<output>
				<port id="2" precision="FP32">
					<dim>1</dim>
					<dim>4</dim>
					<dim>5</dim>
					<dim>5</dim>
				</port>
			</output>
		</layer>
		<layer id="249" name="conv14_2_mbox_conf_perm/Cast_115433_const" type="Const" version="opset1">
			<data element_type="i64" offset="6439480" shape="4" size="32"/>
			<output>
				<port id="1" precision="I64">
					<dim>4</dim>
				</port>
			</output>
		</layer>
		<layer id="250" name="conv14_2_mbox_conf_perm" type="Transpose" version="opset1">
			<input>
				<port id="0">
					<dim>1</dim>
					<dim>4</dim>
					<dim>5</dim>
					<dim>5</dim>
				</port>
				<port id="1">
					<dim>4</dim>
				</port>
			</input>
			<output>
				<port id="2" precision="FP32">
					<dim>1</dim>
					<dim>5</dim>
					<dim>5</dim>
					<dim>4</dim>
				</port>
			</output>
		</layer>
		<layer id="251" name="conv14_2_mbox_conf_flat/Cast_115481_const" type="Const" version="opset1">
			<data element_type="i64" offset="6439512" shape="2" size="16"/>
			<output>
				<port id="1" precision="I64">
					<dim>2</dim>
				</port>
			</output>
		</layer>
		<layer id="252" name="conv14_2_mbox_conf_flat" type="Reshape" version="opset1">
			<data special_zero="True"/>
			<input>
				<port id="0">
					<dim>1</dim>
					<dim>5</dim>
					<dim>5</dim>
					<dim>4</dim>
				</port>
				<port id="1">
					<dim>2</dim>
				</port>
			</input>
			<output>
				<port id="2" precision="FP32">
					<dim>1</dim>
					<dim>100</dim>
				</port>
			</output>
		</layer>
		<layer id="253" name="194/Output_0/Data__const" type="Const" version="opset1">
			<data element_type="f32" offset="21790264" shape="4,256,1,1" size="4096"/>
			<output>
				<port id="1" precision="FP32">
					<dim>4</dim>
					<dim>256</dim>
					<dim>1</dim>
					<dim>1</dim>
				</port>
			</output>
		</layer>
		<layer id="254" name="conv15_2_mbox_conf/WithoutBiases" type="Convolution" version="opset1">
			<data dilations="1,1" output_padding="0,0" pads_begin="0,0" pads_end="0,0" strides="1,1"/>
			<input>
				<port id="0">
					<dim>1</dim>
					<dim>256</dim>
					<dim>3</dim>
					<dim>3</dim>
				</port>
				<port id="1">
					<dim>4</dim>
					<dim>256</dim>
					<dim>1</dim>
					<dim>1</dim>
				</port>
			</input>
			<output>
				<port id="2" precision="FP32">
					<dim>1</dim>
					<dim>4</dim>
					<dim>3</dim>
					<dim>3</dim>
				</port>
			</output>
		</layer>
		<layer id="255" name="conv15_2_mbox_conf/Dims5521/copy_const" type="Const" version="opset1">
			<data element_type="f32" offset="21794360" shape="1,4,1,1" size="16"/>
			<output>
				<port id="1" precision="FP32">
					<dim>1</dim>
					<dim>4</dim>
					<dim>1</dim>
					<dim>1</dim>
				</port>
			</output>
		</layer>
		<layer id="256" name="conv15_2_mbox_conf" type="Add" version="opset1">
			<input>
				<port id="0">
					<dim>1</dim>
					<dim>4</dim>
					<dim>3</dim>
					<dim>3</dim>
				</port>
				<port id="1">
					<dim>1</dim>
					<dim>4</dim>
					<dim>1</dim>
					<dim>1</dim>
				</port>
			</input>
			<output>
				<port id="2" precision="FP32">
					<dim>1</dim>
					<dim>4</dim>
					<dim>3</dim>
					<dim>3</dim>
				</port>
			</output>
		</layer>
		<layer id="257" name="conv15_2_mbox_conf_perm/Cast_115537_const" type="Const" version="opset1">
			<data element_type="i64" offset="6439480" shape="4" size="32"/>
			<output>
				<port id="1" precision="I64">
					<dim>4</dim>
				</port>
			</output>
		</layer>
		<layer id="258" name="conv15_2_mbox_conf_perm" type="Transpose" version="opset1">
			<input>
				<port id="0">
					<dim>1</dim>
					<dim>4</dim>
					<dim>3</dim>
					<dim>3</dim>
				</port>
				<port id="1">
					<dim>4</dim>
				</port>
			</input>
			<output>
				<port id="2" precision="FP32">
					<dim>1</dim>
					<dim>3</dim>
					<dim>3</dim>
					<dim>4</dim>
				</port>
			</output>
		</layer>
		<layer id="259" name="conv15_2_mbox_conf_flat/Cast_115431_const" type="Const" version="opset1">
			<data element_type="i64" offset="6439512" shape="2" size="16"/>
			<output>
				<port id="1" precision="I64">
					<dim>2</dim>
				</port>
			</output>
		</layer>
		<layer id="260" name="conv15_2_mbox_conf_flat" type="Reshape" version="opset1">
			<data special_zero="True"/>
			<input>
				<port id="0">
					<dim>1</dim>
					<dim>3</dim>
					<dim>3</dim>
					<dim>4</dim>
				</port>
				<port id="1">
					<dim>2</dim>
				</port>
			</input>
			<output>
				<port id="2" precision="FP32">
					<dim>1</dim>
					<dim>36</dim>
				</port>
			</output>
		</layer>
		<layer id="261" name="215/Output_0/Data__const" type="Const" version="opset1">
			<data element_type="f32" offset="21794376" shape="4,256,1,1" size="4096"/>
			<output>
				<port id="1" precision="FP32">
					<dim>4</dim>
					<dim>256</dim>
					<dim>1</dim>
					<dim>1</dim>
				</port>
			</output>
		</layer>
		<layer id="262" name="conv16_2_mbox_conf/WithoutBiases" type="Convolution" version="opset1">
			<data dilations="1,1" output_padding="0,0" pads_begin="0,0" pads_end="0,0" strides="1,1"/>
			<input>
				<port id="0">
					<dim>1</dim>
					<dim>256</dim>
					<dim>2</dim>
					<dim>2</dim>
				</port>
				<port id="1">
					<dim>4</dim>
					<dim>256</dim>
					<dim>1</dim>
					<dim>1</dim>
				</port>
			</input>
			<output>
				<port id="2" precision="FP32">
					<dim>1</dim>
					<dim>4</dim>
					<dim>2</dim>
					<dim>2</dim>
				</port>
			</output>
		</layer>
		<layer id="263" name="conv16_2_mbox_conf/Dims5569/copy_const" type="Const" version="opset1">
			<data element_type="f32" offset="21798472" shape="1,4,1,1" size="16"/>
			<output>
				<port id="1" precision="FP32">
					<dim>1</dim>
					<dim>4</dim>
					<dim>1</dim>
					<dim>1</dim>
				</port>
			</output>
		</layer>
		<layer id="264" name="conv16_2_mbox_conf" type="Add" version="opset1">
			<input>
				<port id="0">
					<dim>1</dim>
					<dim>4</dim>
					<dim>2</dim>
					<dim>2</dim>
				</port>
				<port id="1">
					<dim>1</dim>
					<dim>4</dim>
					<dim>1</dim>
					<dim>1</dim>
				</port>
			</input>
			<output>
				<port id="2" precision="FP32">
					<dim>1</dim>
					<dim>4</dim>
					<dim>2</dim>
					<dim>2</dim>
				</port>
			</output>
		</layer>
		<layer id="265" name="conv16_2_mbox_conf_perm/Cast_115423_const" type="Const" version="opset1">
			<data element_type="i64" offset="6439480" shape="4" size="32"/>
			<output>
				<port id="1" precision="I64">
					<dim>4</dim>
				</port>
			</output>
		</layer>
		<layer id="266" name="conv16_2_mbox_conf_perm" type="Transpose" version="opset1">
			<input>
				<port id="0">
					<dim>1</dim>
					<dim>4</dim>
					<dim>2</dim>
					<dim>2</dim>
				</port>
				<port id="1">
					<dim>4</dim>
				</port>
			</input>
			<output>
				<port id="2" precision="FP32">
					<dim>1</dim>
					<dim>2</dim>
					<dim>2</dim>
					<dim>4</dim>
				</port>
			</output>
		</layer>
		<layer id="267" name="conv16_2_mbox_conf_flat/Cast_115491_const" type="Const" version="opset1">
			<data element_type="i64" offset="6439512" shape="2" size="16"/>
			<output>
				<port id="1" precision="I64">
					<dim>2</dim>
				</port>
			</output>
		</layer>
		<layer id="268" name="conv16_2_mbox_conf_flat" type="Reshape" version="opset1">
			<data special_zero="True"/>
			<input>
				<port id="0">
					<dim>1</dim>
					<dim>2</dim>
					<dim>2</dim>
					<dim>4</dim>
				</port>
				<port id="1">
					<dim>2</dim>
				</port>
			</input>
			<output>
				<port id="2" precision="FP32">
					<dim>1</dim>
					<dim>16</dim>
				</port>
			</output>
		</layer>
		<layer id="269" name="354/Output_0/Data__const" type="Const" version="opset1">
			<data element_type="f32" offset="21798488" shape="4,128,1,1" size="2048"/>
			<output>
				<port id="1" precision="FP32">
					<dim>4</dim>
					<dim>128</dim>
					<dim>1</dim>
					<dim>1</dim>
				</port>
			</output>
		</layer>
		<layer id="270" name="conv17_2_mbox_conf/WithoutBiases" type="Convolution" version="opset1">
			<data dilations="1,1" output_padding="0,0" pads_begin="0,0" pads_end="0,0" strides="1,1"/>
			<input>
				<port id="0">
					<dim>1</dim>
					<dim>128</dim>
					<dim>1</dim>
					<dim>1</dim>
				</port>
				<port id="1">
					<dim>4</dim>
					<dim>128</dim>
					<dim>1</dim>
					<dim>1</dim>
				</port>
			</input>
			<output>
				<port id="2" precision="FP32">
					<dim>1</dim>
					<dim>4</dim>
					<dim>1</dim>
					<dim>1</dim>
				</port>
			</output>
		</layer>
		<layer id="271" name="conv17_2_mbox_conf/Dims5551/copy_const" type="Const" version="opset1">
			<data element_type="f32" offset="21800536" shape="1,4,1,1" size="16"/>
			<output>
				<port id="1" precision="FP32">
					<dim>1</dim>
					<dim>4</dim>
					<dim>1</dim>
					<dim>1</dim>
				</port>
			</output>
		</layer>
		<layer id="272" name="conv17_2_mbox_conf" type="Add" version="opset1">
			<input>
				<port id="0">
					<dim>1</dim>
					<dim>4</dim>
					<dim>1</dim>
					<dim>1</dim>
				</port>
				<port id="1">
					<dim>1</dim>
					<dim>4</dim>
					<dim>1</dim>
					<dim>1</dim>
				</port>
			</input>
			<output>
				<port id="2" precision="FP32">
					<dim>1</dim>
					<dim>4</dim>
					<dim>1</dim>
					<dim>1</dim>
				</port>
			</output>
		</layer>
		<layer id="273" name="conv17_2_mbox_conf_perm/Cast_115459_const" type="Const" version="opset1">
			<data element_type="i64" offset="6439480" shape="4" size="32"/>
			<output>
				<port id="1" precision="I64">
					<dim>4</dim>
				</port>
			</output>
		</layer>
		<layer id="274" name="conv17_2_mbox_conf_perm" type="Transpose" version="opset1">
			<input>
				<port id="0">
					<dim>1</dim>
					<dim>4</dim>
					<dim>1</dim>
					<dim>1</dim>
				</port>
				<port id="1">
					<dim>4</dim>
				</port>
			</input>
			<output>
				<port id="2" precision="FP32">
					<dim>1</dim>
					<dim>1</dim>
					<dim>1</dim>
					<dim>4</dim>
				</port>
			</output>
		</layer>
		<layer id="275" name="conv17_2_mbox_conf_flat/Cast_115455_const" type="Const" version="opset1">
			<data element_type="i64" offset="6439512" shape="2" size="16"/>
			<output>
				<port id="1" precision="I64">
					<dim>2</dim>
				</port>
			</output>
		</layer>
		<layer id="276" name="conv17_2_mbox_conf_flat" type="Reshape" version="opset1">
			<data special_zero="True"/>
			<input>
				<port id="0">
					<dim>1</dim>
					<dim>1</dim>
					<dim>1</dim>
					<dim>4</dim>
				</port>
				<port id="1">
					<dim>2</dim>
				</port>
			</input>
			<output>
				<port id="2" precision="FP32">
					<dim>1</dim>
					<dim>4</dim>
				</port>
			</output>
		</layer>
		<layer id="277" name="mbox_conf" type="Concat" version="opset1">
			<data axis="1"/>
			<input>
				<port id="0">
					<dim>1</dim>
					<dim>1444</dim>
				</port>
				<port id="1">
					<dim>1</dim>
					<dim>400</dim>
				</port>
				<port id="2">
					<dim>1</dim>
					<dim>100</dim>
				</port>
				<port id="3">
					<dim>1</dim>
					<dim>36</dim>
				</port>
				<port id="4">
					<dim>1</dim>
					<dim>16</dim>
				</port>
				<port id="5">
					<dim>1</dim>
					<dim>4</dim>
				</port>
			</input>
			<output>
				<port id="6" precision="FP32">
					<dim>1</dim>
					<dim>2000</dim>
				</port>
			</output>
		</layer>
		<layer id="278" name="mbox_conf_reshape/Cast_115535_const" type="Const" version="opset1">
			<data element_type="i64" offset="21800552" shape="3" size="24"/>
			<output>
				<port id="1" precision="I64">
					<dim>3</dim>
				</port>
			</output>
		</layer>
		<layer id="279" name="mbox_conf_reshape" type="Reshape" version="opset1">
			<data special_zero="True"/>
			<input>
				<port id="0">
					<dim>1</dim>
					<dim>2000</dim>
				</port>
				<port id="1">
					<dim>3</dim>
				</port>
			</input>
			<output>
				<port id="2" precision="FP32">
					<dim>1</dim>
					<dim>1000</dim>
					<dim>2</dim>
				</port>
			</output>
		</layer>
		<layer id="280" name="mbox_conf_softmax" type="SoftMax" version="opset1">
			<data axis="2"/>
			<input>
				<port id="0">
					<dim>1</dim>
					<dim>1000</dim>
					<dim>2</dim>
				</port>
			</input>
			<output>
				<port id="1" precision="FP32">
					<dim>1</dim>
					<dim>1000</dim>
					<dim>2</dim>
				</port>
			</output>
		</layer>
		<layer id="281" name="mbox_conf_flatten/Cast_115461_const" type="Const" version="opset1">
			<data element_type="i64" offset="6439512" shape="2" size="16"/>
			<output>
				<port id="1" precision="I64">
					<dim>2</dim>
				</port>
			</output>
		</layer>
		<layer id="282" name="mbox_conf_flatten" type="Reshape" version="opset1">
			<data special_zero="True"/>
			<input>
				<port id="0">
					<dim>1</dim>
					<dim>1000</dim>
					<dim>2</dim>
				</port>
				<port id="1">
					<dim>2</dim>
				</port>
			</input>
			<output>
				<port id="2" precision="FP32">
					<dim>1</dim>
					<dim>2000</dim>
				</port>
			</output>
		</layer>
		<layer id="283" name="conv11_mbox_priorbox/0_port" type="ShapeOf" version="opset3">
			<data output_type="i64"/>
			<input>
				<port id="0">
					<dim>1</dim>
					<dim>512</dim>
					<dim>19</dim>
					<dim>19</dim>
				</port>
			</input>
			<output>
				<port id="1" precision="I64">
					<dim>4</dim>
				</port>
			</output>
		</layer>
		<layer id="284" name="conv11_mbox_priorbox/ss_0_port/Cast_115497_const" type="Const" version="opset1">
			<data element_type="i64" offset="21800576" shape="1" size="8"/>
			<output>
				<port id="1" precision="I64">
					<dim>1</dim>
				</port>
			</output>
		</layer>
		<layer id="285" name="conv11_mbox_priorbox/ss_0_port/Cast_215499_const" type="Const" version="opset1">
			<data element_type="i64" offset="21800584" shape="1" size="8"/>
			<output>
				<port id="1" precision="I64">
					<dim>1</dim>
				</port>
			</output>
		</layer>
		<layer id="286" name="conv11_mbox_priorbox/ss_0_port/Cast_315501_const" type="Const" version="opset1">
			<data element_type="i64" offset="21800592" shape="1" size="8"/>
			<output>
				<port id="1" precision="I64">
					<dim>1</dim>
				</port>
			</output>
		</layer>
		<layer id="287" name="conv11_mbox_priorbox/ss_0_port" type="StridedSlice" version="opset1">
			<data begin_mask="0" ellipsis_mask="0" end_mask="1" new_axis_mask="0" shrink_axis_mask="0"/>
			<input>
				<port id="0">
					<dim>4</dim>
				</port>
				<port id="1">
					<dim>1</dim>
				</port>
				<port id="2">
					<dim>1</dim>
				</port>
				<port id="3">
					<dim>1</dim>
				</port>
			</input>
			<output>
				<port id="4" precision="I64">
					<dim>2</dim>
				</port>
			</output>
		</layer>
		<layer id="288" name="conv11_mbox_priorbox/1_port" type="ShapeOf" version="opset3">
			<data output_type="i64"/>
			<input>
				<port id="0">
					<dim>1</dim>
					<dim>3</dim>
					<dim>300</dim>
					<dim>300</dim>
				</port>
			</input>
			<output>
				<port id="1" precision="I64">
					<dim>4</dim>
				</port>
			</output>
		</layer>
		<layer id="289" name="conv11_mbox_priorbox/ss_1_port/Cast_115521_const" type="Const" version="opset1">
			<data element_type="i64" offset="21800576" shape="1" size="8"/>
			<output>
				<port id="1" precision="I64">
					<dim>1</dim>
				</port>
			</output>
		</layer>
		<layer id="290" name="conv11_mbox_priorbox/ss_1_port/Cast_215523_const" type="Const" version="opset1">
			<data element_type="i64" offset="21800584" shape="1" size="8"/>
			<output>
				<port id="1" precision="I64">
					<dim>1</dim>
				</port>
			</output>
		</layer>
		<layer id="291" name="conv11_mbox_priorbox/ss_1_port/Cast_315525_const" type="Const" version="opset1">
			<data element_type="i64" offset="21800592" shape="1" size="8"/>
			<output>
				<port id="1" precision="I64">
					<dim>1</dim>
				</port>
			</output>
		</layer>
		<layer id="292" name="conv11_mbox_priorbox/ss_1_port" type="StridedSlice" version="opset1">
			<data begin_mask="0" ellipsis_mask="0" end_mask="1" new_axis_mask="0" shrink_axis_mask="0"/>
			<input>
				<port id="0">
					<dim>4</dim>
				</port>
				<port id="1">
					<dim>1</dim>
				</port>
				<port id="2">
					<dim>1</dim>
				</port>
				<port id="3">
					<dim>1</dim>
				</port>
			</input>
			<output>
				<port id="4" precision="I64">
					<dim>2</dim>
				</port>
			</output>
		</layer>
		<layer id="293" name="conv11_mbox_priorbox/naked_not_unsqueezed" type="PriorBox" version="opset1">
			<data aspect_ratio="" clip="0" density="" fixed_ratio="" fixed_size="" flip="1" max_size="32.0" min_size="16.0" offset="0.5" variance="0.10000000149011612,0.10000000149011612,0.20000000298023224,0.20000000298023224"/>
			<input>
				<port id="0">
					<dim>2</dim>
				</port>
				<port id="1">
					<dim>2</dim>
				</port>
			</input>
			<output>
				<port id="2" precision="FP32">
					<dim>2</dim>
					<dim>2888</dim>
				</port>
			</output>
		</layer>
		<layer id="294" name="conv11_mbox_priorbox/unsqueeze/value12088_const" type="Const" version="opset1">
			<data element_type="i64" offset="21800600" shape="1" size="8"/>
			<output>
				<port id="1" precision="I64">
					<dim>1</dim>
				</port>
			</output>
		</layer>
		<layer id="295" name="conv11_mbox_priorbox" type="Unsqueeze" version="opset1">
			<input>
				<port id="0">
					<dim>2</dim>
					<dim>2888</dim>
				</port>
				<port id="1">
					<dim>1</dim>
				</port>
			</input>
			<output>
				<port id="2" precision="FP32">
					<dim>1</dim>
					<dim>2</dim>
					<dim>2888</dim>
				</port>
			</output>
		</layer>
		<layer id="296" name="conv13_mbox_priorbox/0_port" type="ShapeOf" version="opset3">
			<data output_type="i64"/>
			<input>
				<port id="0">
					<dim>1</dim>
					<dim>1024</dim>
					<dim>10</dim>
					<dim>10</dim>
				</port>
			</input>
			<output>
				<port id="1" precision="I64">
					<dim>4</dim>
				</port>
			</output>
		</layer>
		<layer id="297" name="conv13_mbox_priorbox/ss_0_port/Cast_115465_const" type="Const" version="opset1">
			<data element_type="i64" offset="21800576" shape="1" size="8"/>
			<output>
				<port id="1" precision="I64">
					<dim>1</dim>
				</port>
			</output>
		</layer>
		<layer id="298" name="conv13_mbox_priorbox/ss_0_port/Cast_215467_const" type="Const" version="opset1">
			<data element_type="i64" offset="21800584" shape="1" size="8"/>
			<output>
				<port id="1" precision="I64">
					<dim>1</dim>
				</port>
			</output>
		</layer>
		<layer id="299" name="conv13_mbox_priorbox/ss_0_port/Cast_315469_const" type="Const" version="opset1">
			<data element_type="i64" offset="21800592" shape="1" size="8"/>
			<output>
				<port id="1" precision="I64">
					<dim>1</dim>
				</port>
			</output>
		</layer>
		<layer id="300" name="conv13_mbox_priorbox/ss_0_port" type="StridedSlice" version="opset1">
			<data begin_mask="0" ellipsis_mask="0" end_mask="1" new_axis_mask="0" shrink_axis_mask="0"/>
			<input>
				<port id="0">
					<dim>4</dim>
				</port>
				<port id="1">
					<dim>1</dim>
				</port>
				<port id="2">
					<dim>1</dim>
				</port>
				<port id="3">
					<dim>1</dim>
				</port>
			</input>
			<output>
				<port id="4" precision="I64">
					<dim>2</dim>
				</port>
			</output>
		</layer>
		<layer id="301" name="conv13_mbox_priorbox/1_port" type="ShapeOf" version="opset3">
			<data output_type="i64"/>
			<input>
				<port id="0">
					<dim>1</dim>
					<dim>3</dim>
					<dim>300</dim>
					<dim>300</dim>
				</port>
			</input>
			<output>
				<port id="1" precision="I64">
					<dim>4</dim>
				</port>
			</output>
		</layer>
		<layer id="302" name="conv13_mbox_priorbox/ss_1_port/Cast_115473_const" type="Const" version="opset1">
			<data element_type="i64" offset="21800576" shape="1" size="8"/>
			<output>
				<port id="1" precision="I64">
					<dim>1</dim>
				</port>
			</output>
		</layer>
		<layer id="303" name="conv13_mbox_priorbox/ss_1_port/Cast_215475_const" type="Const" version="opset1">
			<data element_type="i64" offset="21800584" shape="1" size="8"/>
			<output>
				<port id="1" precision="I64">
					<dim>1</dim>
				</port>
			</output>
		</layer>
		<layer id="304" name="conv13_mbox_priorbox/ss_1_port/Cast_315477_const" type="Const" version="opset1">
			<data element_type="i64" offset="21800592" shape="1" size="8"/>
			<output>
				<port id="1" precision="I64">
					<dim>1</dim>
				</port>
			</output>
		</layer>
		<layer id="305" name="conv13_mbox_priorbox/ss_1_port" type="StridedSlice" version="opset1">
			<data begin_mask="0" ellipsis_mask="0" end_mask="1" new_axis_mask="0" shrink_axis_mask="0"/>
			<input>
				<port id="0">
					<dim>4</dim>
				</port>
				<port id="1">
					<dim>1</dim>
				</port>
				<port id="2">
					<dim>1</dim>
				</port>
				<port id="3">
					<dim>1</dim>
				</port>
			</input>
			<output>
				<port id="4" precision="I64">
					<dim>2</dim>
				</port>
			</output>
		</layer>
		<layer id="306" name="conv13_mbox_priorbox/naked_not_unsqueezed" type="PriorBox" version="opset1">
			<data aspect_ratio="" clip="0" density="" fixed_ratio="" fixed_size="" flip="1" max_size="64.0" min_size="32.0" offset="0.5" variance="0.10000000149011612,0.10000000149011612,0.20000000298023224,0.20000000298023224"/>
			<input>
				<port id="0">
					<dim>2</dim>
				</port>
				<port id="1">
					<dim>2</dim>
				</port>
			</input>
			<output>
				<port id="2" precision="FP32">
					<dim>2</dim>
					<dim>800</dim>
				</port>
			</output>
		</layer>
		<layer id="307" name="conv13_mbox_priorbox/unsqueeze/value12034_const" type="Const" version="opset1">
			<data element_type="i64" offset="21800600" shape="1" size="8"/>
			<output>
				<port id="1" precision="I64">
					<dim>1</dim>
				</port>
			</output>
		</layer>
		<layer id="308" name="conv13_mbox_priorbox" type="Unsqueeze" version="opset1">
			<input>
				<port id="0">
					<dim>2</dim>
					<dim>800</dim>
				</port>
				<port id="1">
					<dim>1</dim>
				</port>
			</input>
			<output>
				<port id="2" precision="FP32">
					<dim>1</dim>
					<dim>2</dim>
					<dim>800</dim>
				</port>
			</output>
		</layer>
		<layer id="309" name="conv14_2_mbox_priorbox/0_port" type="ShapeOf" version="opset3">
			<data output_type="i64"/>
			<input>
				<port id="0">
					<dim>1</dim>
					<dim>512</dim>
					<dim>5</dim>
					<dim>5</dim>
				</port>
			</input>
			<output>
				<port id="1" precision="I64">
					<dim>4</dim>
				</port>
			</output>
		</layer>
		<layer id="310" name="conv14_2_mbox_priorbox/ss_0_port/Cast_115445_const" type="Const" version="opset1">
			<data element_type="i64" offset="21800576" shape="1" size="8"/>
			<output>
				<port id="1" precision="I64">
					<dim>1</dim>
				</port>
			</output>
		</layer>
		<layer id="311" name="conv14_2_mbox_priorbox/ss_0_port/Cast_215447_const" type="Const" version="opset1">
			<data element_type="i64" offset="21800584" shape="1" size="8"/>
			<output>
				<port id="1" precision="I64">
					<dim>1</dim>
				</port>
			</output>
		</layer>
		<layer id="312" name="conv14_2_mbox_priorbox/ss_0_port/Cast_315449_const" type="Const" version="opset1">
			<data element_type="i64" offset="21800592" shape="1" size="8"/>
			<output>
				<port id="1" precision="I64">
					<dim>1</dim>
				</port>
			</output>
		</layer>
		<layer id="313" name="conv14_2_mbox_priorbox/ss_0_port" type="StridedSlice" version="opset1">
			<data begin_mask="0" ellipsis_mask="0" end_mask="1" new_axis_mask="0" shrink_axis_mask="0"/>
			<input>
				<port id="0">
					<dim>4</dim>
				</port>
				<port id="1">
					<dim>1</dim>
				</port>
				<port id="2">
					<dim>1</dim>
				</port>
				<port id="3">
					<dim>1</dim>
				</port>
			</input>
			<output>
				<port id="4" precision="I64">
					<dim>2</dim>
				</port>
			</output>
		</layer>
		<layer id="314" name="conv14_2_mbox_priorbox/1_port" type="ShapeOf" version="opset3">
			<data output_type="i64"/>
			<input>
				<port id="0">
					<dim>1</dim>
					<dim>3</dim>
					<dim>300</dim>
					<dim>300</dim>
				</port>
			</input>
			<output>
				<port id="1" precision="I64">
					<dim>4</dim>
				</port>
			</output>
		</layer>
		<layer id="315" name="conv14_2_mbox_priorbox/ss_1_port/Cast_115509_const" type="Const" version="opset1">
			<data element_type="i64" offset="21800576" shape="1" size="8"/>
			<output>
				<port id="1" precision="I64">
					<dim>1</dim>
				</port>
			</output>
		</layer>
		<layer id="316" name="conv14_2_mbox_priorbox/ss_1_port/Cast_215511_const" type="Const" version="opset1">
			<data element_type="i64" offset="21800584" shape="1" size="8"/>
			<output>
				<port id="1" precision="I64">
					<dim>1</dim>
				</port>
			</output>
		</layer>
		<layer id="317" name="conv14_2_mbox_priorbox/ss_1_port/Cast_315513_const" type="Const" version="opset1">
			<data element_type="i64" offset="21800592" shape="1" size="8"/>
			<output>
				<port id="1" precision="I64">
					<dim>1</dim>
				</port>
			</output>
		</layer>
		<layer id="318" name="conv14_2_mbox_priorbox/ss_1_port" type="StridedSlice" version="opset1">
			<data begin_mask="0" ellipsis_mask="0" end_mask="1" new_axis_mask="0" shrink_axis_mask="0"/>
			<input>
				<port id="0">
					<dim>4</dim>
				</port>
				<port id="1">
					<dim>1</dim>
				</port>
				<port id="2">
					<dim>1</dim>
				</port>
				<port id="3">
					<dim>1</dim>
				</port>
			</input>
			<output>
				<port id="4" precision="I64">
					<dim>2</dim>
				</port>
			</output>
		</layer>
		<layer id="319" name="conv14_2_mbox_priorbox/naked_not_unsqueezed" type="PriorBox" version="opset1">
			<data aspect_ratio="" clip="0" density="" fixed_ratio="" fixed_size="" flip="1" max_size="128.0" min_size="64.0" offset="0.5" variance="0.10000000149011612,0.10000000149011612,0.20000000298023224,0.20000000298023224"/>
			<input>
				<port id="0">
					<dim>2</dim>
				</port>
				<port id="1">
					<dim>2</dim>
				</port>
			</input>
			<output>
				<port id="2" precision="FP32">
					<dim>2</dim>
					<dim>200</dim>
				</port>
			</output>
		</layer>
		<layer id="320" name="conv14_2_mbox_priorbox/unsqueeze/value12106_const" type="Const" version="opset1">
			<data element_type="i64" offset="21800600" shape="1" size="8"/>
			<output>
				<port id="1" precision="I64">
					<dim>1</dim>
				</port>
			</output>
		</layer>
		<layer id="321" name="conv14_2_mbox_priorbox" type="Unsqueeze" version="opset1">
			<input>
				<port id="0">
					<dim>2</dim>
					<dim>200</dim>
				</port>
				<port id="1">
					<dim>1</dim>
				</port>
			</input>
			<output>
				<port id="2" precision="FP32">
					<dim>1</dim>
					<dim>2</dim>
					<dim>200</dim>
				</port>
			</output>
		</layer>
		<layer id="322" name="conv15_2_mbox_priorbox/0_port" type="ShapeOf" version="opset3">
			<data output_type="i64"/>
			<input>
				<port id="0">
					<dim>1</dim>
					<dim>256</dim>
					<dim>3</dim>
					<dim>3</dim>
				</port>
			</input>
			<output>
				<port id="1" precision="I64">
					<dim>4</dim>
				</port>
			</output>
		</layer>
		<layer id="323" name="conv15_2_mbox_priorbox/ss_0_port/Cast_115425_const" type="Const" version="opset1">
			<data element_type="i64" offset="21800576" shape="1" size="8"/>
			<output>
				<port id="1" precision="I64">
					<dim>1</dim>
				</port>
			</output>
		</layer>
		<layer id="324" name="conv15_2_mbox_priorbox/ss_0_port/Cast_215427_const" type="Const" version="opset1">
			<data element_type="i64" offset="21800584" shape="1" size="8"/>
			<output>
				<port id="1" precision="I64">
					<dim>1</dim>
				</port>
			</output>
		</layer>
		<layer id="325" name="conv15_2_mbox_priorbox/ss_0_port/Cast_315429_const" type="Const" version="opset1">
			<data element_type="i64" offset="21800592" shape="1" size="8"/>
			<output>
				<port id="1" precision="I64">
					<dim>1</dim>
				</port>
			</output>
		</layer>
		<layer id="326" name="conv15_2_mbox_priorbox/ss_0_port" type="StridedSlice" version="opset1">
			<data begin_mask="0" ellipsis_mask="0" end_mask="1" new_axis_mask="0" shrink_axis_mask="0"/>
			<input>
				<port id="0">
					<dim>4</dim>
				</port>
				<port id="1">
					<dim>1</dim>
				</port>
				<port id="2">
					<dim>1</dim>
				</port>
				<port id="3">
					<dim>1</dim>
				</port>
			</input>
			<output>
				<port id="4" precision="I64">
					<dim>2</dim>
				</port>
			</output>
		</layer>
		<layer id="327" name="conv15_2_mbox_priorbox/1_port" type="ShapeOf" version="opset3">
			<data output_type="i64"/>
			<input>
				<port id="0">
					<dim>1</dim>
					<dim>3</dim>
					<dim>300</dim>
					<dim>300</dim>
				</port>
			</input>
			<output>
				<port id="1" precision="I64">
					<dim>4</dim>
				</port>
			</output>
		</layer>
		<layer id="328" name="conv15_2_mbox_priorbox/ss_1_port/Cast_115503_const" type="Const" version="opset1">
			<data element_type="i64" offset="21800576" shape="1" size="8"/>
			<output>
				<port id="1" precision="I64">
					<dim>1</dim>
				</port>
			</output>
		</layer>
		<layer id="329" name="conv15_2_mbox_priorbox/ss_1_port/Cast_215505_const" type="Const" version="opset1">
			<data element_type="i64" offset="21800584" shape="1" size="8"/>
			<output>
				<port id="1" precision="I64">
					<dim>1</dim>
				</port>
			</output>
		</layer>
		<layer id="330" name="conv15_2_mbox_priorbox/ss_1_port/Cast_315507_const" type="Const" version="opset1">
			<data element_type="i64" offset="21800592" shape="1" size="8"/>
			<output>
				<port id="1" precision="I64">
					<dim>1</dim>
				</port>
			</output>
		</layer>
		<layer id="331" name="conv15_2_mbox_priorbox/ss_1_port" type="StridedSlice" version="opset1">
			<data begin_mask="0" ellipsis_mask="0" end_mask="1" new_axis_mask="0" shrink_axis_mask="0"/>
			<input>
				<port id="0">
					<dim>4</dim>
				</port>
				<port id="1">
					<dim>1</dim>
				</port>
				<port id="2">
					<dim>1</dim>
				</port>
				<port id="3">
					<dim>1</dim>
				</port>
			</input>
			<output>
				<port id="4" precision="I64">
					<dim>2</dim>
				</port>
			</output>
		</layer>
		<layer id="332" name="conv15_2_mbox_priorbox/naked_not_unsqueezed" type="PriorBox" version="opset1">
			<data aspect_ratio="" clip="0" density="" fixed_ratio="" fixed_size="" flip="1" max_size="214.0" min_size="128.0" offset="0.5" variance="0.10000000149011612,0.10000000149011612,0.20000000298023224,0.20000000298023224"/>
			<input>
				<port id="0">
					<dim>2</dim>
				</port>
				<port id="1">
					<dim>2</dim>
				</port>
			</input>
			<output>
				<port id="2" precision="FP32">
					<dim>2</dim>
					<dim>72</dim>
				</port>
			</output>
		</layer>
		<layer id="333" name="conv15_2_mbox_priorbox/unsqueeze/value12070_const" type="Const" version="opset1">
			<data element_type="i64" offset="21800600" shape="1" size="8"/>
			<output>
				<port id="1" precision="I64">
					<dim>1</dim>
				</port>
			</output>
		</layer>
		<layer id="334" name="conv15_2_mbox_priorbox" type="Unsqueeze" version="opset1">
			<input>
				<port id="0">
					<dim>2</dim>
					<dim>72</dim>
				</port>
				<port id="1">
					<dim>1</dim>
				</port>
			</input>
			<output>
				<port id="2" precision="FP32">
					<dim>1</dim>
					<dim>2</dim>
					<dim>72</dim>
				</port>
			</output>
		</layer>
		<layer id="335" name="conv16_2_mbox_priorbox/0_port" type="ShapeOf" version="opset3">
			<data output_type="i64"/>
			<input>
				<port id="0">
					<dim>1</dim>
					<dim>256</dim>
					<dim>2</dim>
					<dim>2</dim>
				</port>
			</input>
			<output>
				<port id="1" precision="I64">
					<dim>4</dim>
				</port>
			</output>
		</layer>
		<layer id="336" name="conv16_2_mbox_priorbox/ss_0_port/Cast_115483_const" type="Const" version="opset1">
			<data element_type="i64" offset="21800576" shape="1" size="8"/>
			<output>
				<port id="1" precision="I64">
					<dim>1</dim>
				</port>
			</output>
		</layer>
		<layer id="337" name="conv16_2_mbox_priorbox/ss_0_port/Cast_215485_const" type="Const" version="opset1">
			<data element_type="i64" offset="21800584" shape="1" size="8"/>
			<output>
				<port id="1" precision="I64">
					<dim>1</dim>
				</port>
			</output>
		</layer>
		<layer id="338" name="conv16_2_mbox_priorbox/ss_0_port/Cast_315487_const" type="Const" version="opset1">
			<data element_type="i64" offset="21800592" shape="1" size="8"/>
			<output>
				<port id="1" precision="I64">
					<dim>1</dim>
				</port>
			</output>
		</layer>
		<layer id="339" name="conv16_2_mbox_priorbox/ss_0_port" type="StridedSlice" version="opset1">
			<data begin_mask="0" ellipsis_mask="0" end_mask="1" new_axis_mask="0" shrink_axis_mask="0"/>
			<input>
				<port id="0">
					<dim>4</dim>
				</port>
				<port id="1">
					<dim>1</dim>
				</port>
				<port id="2">
					<dim>1</dim>
				</port>
				<port id="3">
					<dim>1</dim>
				</port>
			</input>
			<output>
				<port id="4" precision="I64">
					<dim>2</dim>
				</port>
			</output>
		</layer>
		<layer id="340" name="conv16_2_mbox_priorbox/1_port" type="ShapeOf" version="opset3">
			<data output_type="i64"/>
			<input>
				<port id="0">
					<dim>1</dim>
					<dim>3</dim>
					<dim>300</dim>
					<dim>300</dim>
				</port>
			</input>
			<output>
				<port id="1" precision="I64">
					<dim>4</dim>
				</port>
			</output>
		</layer>
		<layer id="341" name="conv16_2_mbox_priorbox/ss_1_port/Cast_115435_const" type="Const" version="opset1">
			<data element_type="i64" offset="21800576" shape="1" size="8"/>
			<output>
				<port id="1" precision="I64">
					<dim>1</dim>
				</port>
			</output>
		</layer>
		<layer id="342" name="conv16_2_mbox_priorbox/ss_1_port/Cast_215437_const" type="Const" version="opset1">
			<data element_type="i64" offset="21800584" shape="1" size="8"/>
			<output>
				<port id="1" precision="I64">
					<dim>1</dim>
				</port>
			</output>
		</layer>
		<layer id="343" name="conv16_2_mbox_priorbox/ss_1_port/Cast_315439_const" type="Const" version="opset1">
			<data element_type="i64" offset="21800592" shape="1" size="8"/>
			<output>
				<port id="1" precision="I64">
					<dim>1</dim>
				</port>
			</output>
		</layer>
		<layer id="344" name="conv16_2_mbox_priorbox/ss_1_port" type="StridedSlice" version="opset1">
			<data begin_mask="0" ellipsis_mask="0" end_mask="1" new_axis_mask="0" shrink_axis_mask="0"/>
			<input>
				<port id="0">
					<dim>4</dim>
				</port>
				<port id="1">
					<dim>1</dim>
				</port>
				<port id="2">
					<dim>1</dim>
				</port>
				<port id="3">
					<dim>1</dim>
				</port>
			</input>
			<output>
				<port id="4" precision="I64">
					<dim>2</dim>
				</port>
			</output>
		</layer>
		<layer id="345" name="conv16_2_mbox_priorbox/naked_not_unsqueezed" type="PriorBox" version="opset1">
			<data aspect_ratio="" clip="0" density="" fixed_ratio="" fixed_size="" flip="1" max_size="300.0" min_size="214.0" offset="0.5" variance="0.10000000149011612,0.10000000149011612,0.20000000298023224,0.20000000298023224"/>
			<input>
				<port id="0">
					<dim>2</dim>
				</port>
				<port id="1">
					<dim>2</dim>
				</port>
			</input>
			<output>
				<port id="2" precision="FP32">
					<dim>2</dim>
					<dim>32</dim>
				</port>
			</output>
		</layer>
		<layer id="346" name="conv16_2_mbox_priorbox/unsqueeze/value12052_const" type="Const" version="opset1">
			<data element_type="i64" offset="21800600" shape="1" size="8"/>
			<output>
				<port id="1" precision="I64">
					<dim>1</dim>
				</port>
			</output>
		</layer>
		<layer id="347" name="conv16_2_mbox_priorbox" type="Unsqueeze" version="opset1">
			<input>
				<port id="0">
					<dim>2</dim>
					<dim>32</dim>
				</port>
				<port id="1">
					<dim>1</dim>
				</port>
			</input>
			<output>
				<port id="2" precision="FP32">
					<dim>1</dim>
					<dim>2</dim>
					<dim>32</dim>
				</port>
			</output>
		</layer>
		<layer id="348" name="conv17_2_mbox_priorbox/0_port" type="ShapeOf" version="opset3">
			<data output_type="i64"/>
			<input>
				<port id="0">
					<dim>1</dim>
					<dim>128</dim>
					<dim>1</dim>
					<dim>1</dim>
				</port>
			</input>
			<output>
				<port id="1" precision="I64">
					<dim>4</dim>
				</port>
			</output>
		</layer>
		<layer id="349" name="conv17_2_mbox_priorbox/ss_0_port/Cast_115529_const" type="Const" version="opset1">
			<data element_type="i64" offset="21800576" shape="1" size="8"/>
			<output>
				<port id="1" precision="I64">
					<dim>1</dim>
				</port>
			</output>
		</layer>
		<layer id="350" name="conv17_2_mbox_priorbox/ss_0_port/Cast_215531_const" type="Const" version="opset1">
			<data element_type="i64" offset="21800584" shape="1" size="8"/>
			<output>
				<port id="1" precision="I64">
					<dim>1</dim>
				</port>
			</output>
		</layer>
		<layer id="351" name="conv17_2_mbox_priorbox/ss_0_port/Cast_315533_const" type="Const" version="opset1">
			<data element_type="i64" offset="21800592" shape="1" size="8"/>
			<output>
				<port id="1" precision="I64">
					<dim>1</dim>
				</port>
			</output>
		</layer>
		<layer id="352" name="conv17_2_mbox_priorbox/ss_0_port" type="StridedSlice" version="opset1">
			<data begin_mask="0" ellipsis_mask="0" end_mask="1" new_axis_mask="0" shrink_axis_mask="0"/>
			<input>
				<port id="0">
					<dim>4</dim>
				</port>
				<port id="1">
					<dim>1</dim>
				</port>
				<port id="2">
					<dim>1</dim>
				</port>
				<port id="3">
					<dim>1</dim>
				</port>
			</input>
			<output>
				<port id="4" precision="I64">
					<dim>2</dim>
				</port>
			</output>
		</layer>
		<layer id="353" name="conv17_2_mbox_priorbox/1_port" type="ShapeOf" version="opset3">
			<data output_type="i64"/>
			<input>
				<port id="0">
					<dim>1</dim>
					<dim>3</dim>
					<dim>300</dim>
					<dim>300</dim>
				</port>
			</input>
			<output>
				<port id="1" precision="I64">
					<dim>4</dim>
				</port>
			</output>
		</layer>
		<layer id="354" name="conv17_2_mbox_priorbox/ss_1_port/Cast_115417_const" type="Const" version="opset1">
			<data element_type="i64" offset="21800576" shape="1" size="8"/>
			<output>
				<port id="1" precision="I64">
					<dim>1</dim>
				</port>
			</output>
		</layer>
		<layer id="355" name="conv17_2_mbox_priorbox/ss_1_port/Cast_215419_const" type="Const" version="opset1">
			<data element_type="i64" offset="21800584" shape="1" size="8"/>
			<output>
				<port id="1" precision="I64">
					<dim>1</dim>
				</port>
			</output>
		</layer>
		<layer id="356" name="conv17_2_mbox_priorbox/ss_1_port/Cast_315421_const" type="Const" version="opset1">
			<data element_type="i64" offset="21800592" shape="1" size="8"/>
			<output>
				<port id="1" precision="I64">
					<dim>1</dim>
				</port>
			</output>
		</layer>
		<layer id="357" name="conv17_2_mbox_priorbox/ss_1_port" type="StridedSlice" version="opset1">
			<data begin_mask="0" ellipsis_mask="0" end_mask="1" new_axis_mask="0" shrink_axis_mask="0"/>
			<input>
				<port id="0">
					<dim>4</dim>
				</port>
				<port id="1">
					<dim>1</dim>
				</port>
				<port id="2">
					<dim>1</dim>
				</port>
				<port id="3">
					<dim>1</dim>
				</port>
			</input>
			<output>
				<port id="4" precision="I64">
					<dim>2</dim>
				</port>
			</output>
		</layer>
		<layer id="358" name="conv17_2_mbox_priorbox/naked_not_unsqueezed" type="PriorBox" version="opset1">
			<data aspect_ratio="" clip="0" density="" fixed_ratio="" fixed_size="" flip="1" max_size="300.0" min_size="214.0" offset="0.5" variance="0.10000000149011612,0.10000000149011612,0.20000000298023224,0.20000000298023224"/>
			<input>
				<port id="0">
					<dim>2</dim>
				</port>
				<port id="1">
					<dim>2</dim>
				</port>
			</input>
			<output>
				<port id="2" precision="FP32">
					<dim>2</dim>
					<dim>8</dim>
				</port>
			</output>
		</layer>
		<layer id="359" name="conv17_2_mbox_priorbox/unsqueeze/value12124_const" type="Const" version="opset1">
			<data element_type="i64" offset="21800600" shape="1" size="8"/>
			<output>
				<port id="1" precision="I64">
					<dim>1</dim>
				</port>
			</output>
		</layer>
		<layer id="360" name="conv17_2_mbox_priorbox" type="Unsqueeze" version="opset1">
			<input>
				<port id="0">
					<dim>2</dim>
					<dim>8</dim>
				</port>
				<port id="1">
					<dim>1</dim>
				</port>
			</input>
			<output>
				<port id="2" precision="FP32">
					<dim>1</dim>
					<dim>2</dim>
					<dim>8</dim>
				</port>
			</output>
		</layer>
		<layer id="361" name="mbox_priorbox" type="Concat" version="opset1">
			<data axis="2"/>
			<input>
				<port id="0">
					<dim>1</dim>
					<dim>2</dim>
					<dim>2888</dim>
				</port>
				<port id="1">
					<dim>1</dim>
					<dim>2</dim>
					<dim>800</dim>
				</port>
				<port id="2">
					<dim>1</dim>
					<dim>2</dim>
					<dim>200</dim>
				</port>
				<port id="3">
					<dim>1</dim>
					<dim>2</dim>
					<dim>72</dim>
				</port>
				<port id="4">
					<dim>1</dim>
					<dim>2</dim>
					<dim>32</dim>
				</port>
				<port id="5">
					<dim>1</dim>
					<dim>2</dim>
					<dim>8</dim>
				</port>
			</input>
			<output>
				<port id="6" precision="FP32">
					<dim>1</dim>
					<dim>2</dim>
					<dim>4000</dim>
				</port>
			</output>
		</layer>
		<layer id="362" name="detection_out" type="DetectionOutput" version="opset1">
			<data background_label_id="0" code_type="caffe.PriorBoxParameter.CENTER_SIZE" confidence_threshold="0.44999998807907104" eta="1.0" input_height="1" input_width="1" keep_top_k="100" nms_threshold="0.44999998807907104" normalized="1" num_classes="2" share_location="1" top_k="100" variance_encoded_in_target="0" visualize="False"/>
			<input>
				<port id="0">
					<dim>1</dim>
					<dim>4000</dim>
				</port>
				<port id="1">
					<dim>1</dim>
					<dim>2000</dim>
				</port>
				<port id="2">
					<dim>1</dim>
					<dim>2</dim>
					<dim>4000</dim>
				</port>
			</input>
			<output>
				<port id="3" precision="FP32">
					<dim>1</dim>
					<dim>1</dim>
					<dim>100</dim>
					<dim>7</dim>
				</port>
			</output>
		</layer>
		<layer id="363" name="detection_out/sink_port_0" type="Result" version="opset1">
			<input>
				<port id="0">
					<dim>1</dim>
					<dim>1</dim>
					<dim>100</dim>
					<dim>7</dim>
				</port>
			</input>
		</layer>
	</layers>
	<edges>
		<edge from-layer="0" from-port="0" to-layer="2" to-port="0"/>
		<edge from-layer="1" from-port="1" to-layer="2" to-port="1"/>
		<edge from-layer="2" from-port="2" to-layer="4" to-port="0"/>
		<edge from-layer="3" from-port="1" to-layer="4" to-port="1"/>
		<edge from-layer="4" from-port="2" to-layer="6" to-port="0"/>
		<edge from-layer="5" from-port="1" to-layer="6" to-port="1"/>
		<edge from-layer="6" from-port="2" to-layer="8" to-port="0"/>
		<edge from-layer="7" from-port="1" to-layer="8" to-port="1"/>
		<edge from-layer="8" from-port="2" to-layer="9" to-port="0"/>
		<edge from-layer="9" from-port="1" to-layer="11" to-port="0"/>
		<edge from-layer="10" from-port="1" to-layer="11" to-port="1"/>
		<edge from-layer="11" from-port="2" to-layer="13" to-port="0"/>
		<edge from-layer="12" from-port="1" to-layer="13" to-port="1"/>
		<edge from-layer="13" from-port="2" to-layer="14" to-port="0"/>
		<edge from-layer="14" from-port="1" to-layer="16" to-port="0"/>
		<edge from-layer="15" from-port="1" to-layer="16" to-port="1"/>
		<edge from-layer="16" from-port="2" to-layer="18" to-port="0"/>
		<edge from-layer="17" from-port="1" to-layer="18" to-port="1"/>
		<edge from-layer="18" from-port="2" to-layer="19" to-port="0"/>
		<edge from-layer="19" from-port="1" to-layer="21" to-port="0"/>
		<edge from-layer="20" from-port="1" to-layer="21" to-port="1"/>
		<edge from-layer="21" from-port="2" to-layer="23" to-port="0"/>
		<edge from-layer="22" from-port="1" to-layer="23" to-port="1"/>
		<edge from-layer="23" from-port="2" to-layer="24" to-port="0"/>
		<edge from-layer="24" from-port="1" to-layer="26" to-port="0"/>
		<edge from-layer="25" from-port="1" to-layer="26" to-port="1"/>
		<edge from-layer="26" from-port="2" to-layer="28" to-port="0"/>
		<edge from-layer="27" from-port="1" to-layer="28" to-port="1"/>
		<edge from-layer="28" from-port="2" to-layer="29" to-port="0"/>
		<edge from-layer="29" from-port="1" to-layer="31" to-port="0"/>
		<edge from-layer="30" from-port="1" to-layer="31" to-port="1"/>
		<edge from-layer="31" from-port="2" to-layer="33" to-port="0"/>
		<edge from-layer="32" from-port="1" to-layer="33" to-port="1"/>
		<edge from-layer="33" from-port="2" to-layer="34" to-port="0"/>
		<edge from-layer="34" from-port="1" to-layer="36" to-port="0"/>
		<edge from-layer="35" from-port="1" to-layer="36" to-port="1"/>
		<edge from-layer="36" from-port="2" to-layer="38" to-port="0"/>
		<edge from-layer="37" from-port="1" to-layer="38" to-port="1"/>
		<edge from-layer="38" from-port="2" to-layer="39" to-port="0"/>
		<edge from-layer="39" from-port="1" to-layer="41" to-port="0"/>
		<edge from-layer="40" from-port="1" to-layer="41" to-port="1"/>
		<edge from-layer="41" from-port="2" to-layer="43" to-port="0"/>
		<edge from-layer="42" from-port="1" to-layer="43" to-port="1"/>
		<edge from-layer="43" from-port="2" to-layer="44" to-port="0"/>
		<edge from-layer="44" from-port="1" to-layer="46" to-port="0"/>
		<edge from-layer="45" from-port="1" to-layer="46" to-port="1"/>
		<edge from-layer="46" from-port="2" to-layer="48" to-port="0"/>
		<edge from-layer="47" from-port="1" to-layer="48" to-port="1"/>
		<edge from-layer="48" from-port="2" to-layer="49" to-port="0"/>
		<edge from-layer="49" from-port="1" to-layer="51" to-port="0"/>
		<edge from-layer="50" from-port="1" to-layer="51" to-port="1"/>
		<edge from-layer="51" from-port="2" to-layer="53" to-port="0"/>
		<edge from-layer="52" from-port="1" to-layer="53" to-port="1"/>
		<edge from-layer="53" from-port="2" to-layer="54" to-port="0"/>
		<edge from-layer="54" from-port="1" to-layer="56" to-port="0"/>
		<edge from-layer="55" from-port="1" to-layer="56" to-port="1"/>
		<edge from-layer="56" from-port="2" to-layer="58" to-port="0"/>
		<edge from-layer="57" from-port="1" to-layer="58" to-port="1"/>
		<edge from-layer="58" from-port="2" to-layer="59" to-port="0"/>
		<edge from-layer="59" from-port="1" to-layer="61" to-port="0"/>
		<edge from-layer="60" from-port="1" to-layer="61" to-port="1"/>
		<edge from-layer="61" from-port="2" to-layer="63" to-port="0"/>
		<edge from-layer="62" from-port="1" to-layer="63" to-port="1"/>
		<edge from-layer="63" from-port="2" to-layer="64" to-port="0"/>
		<edge from-layer="64" from-port="1" to-layer="66" to-port="0"/>
		<edge from-layer="65" from-port="1" to-layer="66" to-port="1"/>
		<edge from-layer="66" from-port="2" to-layer="68" to-port="0"/>
		<edge from-layer="67" from-port="1" to-layer="68" to-port="1"/>
		<edge from-layer="68" from-port="2" to-layer="69" to-port="0"/>
		<edge from-layer="69" from-port="1" to-layer="71" to-port="0"/>
		<edge from-layer="70" from-port="1" to-layer="71" to-port="1"/>
		<edge from-layer="71" from-port="2" to-layer="73" to-port="0"/>
		<edge from-layer="72" from-port="1" to-layer="73" to-port="1"/>
		<edge from-layer="73" from-port="2" to-layer="74" to-port="0"/>
		<edge from-layer="74" from-port="1" to-layer="76" to-port="0"/>
		<edge from-layer="75" from-port="1" to-layer="76" to-port="1"/>
		<edge from-layer="76" from-port="2" to-layer="78" to-port="0"/>
		<edge from-layer="77" from-port="1" to-layer="78" to-port="1"/>
		<edge from-layer="78" from-port="2" to-layer="79" to-port="0"/>
		<edge from-layer="79" from-port="1" to-layer="81" to-port="0"/>
		<edge from-layer="80" from-port="1" to-layer="81" to-port="1"/>
		<edge from-layer="81" from-port="2" to-layer="83" to-port="0"/>
		<edge from-layer="82" from-port="1" to-layer="83" to-port="1"/>
		<edge from-layer="83" from-port="2" to-layer="84" to-port="0"/>
		<edge from-layer="84" from-port="1" to-layer="86" to-port="0"/>
		<edge from-layer="85" from-port="1" to-layer="86" to-port="1"/>
		<edge from-layer="86" from-port="2" to-layer="88" to-port="0"/>
		<edge from-layer="87" from-port="1" to-layer="88" to-port="1"/>
		<edge from-layer="88" from-port="2" to-layer="89" to-port="0"/>
		<edge from-layer="89" from-port="1" to-layer="91" to-port="0"/>
		<edge from-layer="90" from-port="1" to-layer="91" to-port="1"/>
		<edge from-layer="91" from-port="2" to-layer="93" to-port="0"/>
		<edge from-layer="92" from-port="1" to-layer="93" to-port="1"/>
		<edge from-layer="93" from-port="2" to-layer="94" to-port="0"/>
		<edge from-layer="94" from-port="1" to-layer="96" to-port="0"/>
		<edge from-layer="95" from-port="1" to-layer="96" to-port="1"/>
		<edge from-layer="96" from-port="2" to-layer="98" to-port="0"/>
		<edge from-layer="97" from-port="1" to-layer="98" to-port="1"/>
		<edge from-layer="98" from-port="2" to-layer="99" to-port="0"/>
		<edge from-layer="99" from-port="1" to-layer="101" to-port="0"/>
		<edge from-layer="100" from-port="1" to-layer="101" to-port="1"/>
		<edge from-layer="101" from-port="2" to-layer="103" to-port="0"/>
		<edge from-layer="102" from-port="1" to-layer="103" to-port="1"/>
		<edge from-layer="103" from-port="2" to-layer="104" to-port="0"/>
		<edge from-layer="104" from-port="1" to-layer="106" to-port="0"/>
		<edge from-layer="105" from-port="1" to-layer="106" to-port="1"/>
		<edge from-layer="106" from-port="2" to-layer="108" to-port="0"/>
		<edge from-layer="107" from-port="1" to-layer="108" to-port="1"/>
		<edge from-layer="108" from-port="2" to-layer="109" to-port="0"/>
		<edge from-layer="109" from-port="1" to-layer="111" to-port="0"/>
		<edge from-layer="110" from-port="1" to-layer="111" to-port="1"/>
		<edge from-layer="111" from-port="2" to-layer="113" to-port="0"/>
		<edge from-layer="112" from-port="1" to-layer="113" to-port="1"/>
		<edge from-layer="113" from-port="2" to-layer="114" to-port="0"/>
		<edge from-layer="114" from-port="1" to-layer="116" to-port="0"/>
		<edge from-layer="115" from-port="1" to-layer="116" to-port="1"/>
		<edge from-layer="116" from-port="2" to-layer="118" to-port="0"/>
		<edge from-layer="117" from-port="1" to-layer="118" to-port="1"/>
		<edge from-layer="118" from-port="2" to-layer="119" to-port="0"/>
		<edge from-layer="119" from-port="1" to-layer="121" to-port="0"/>
		<edge from-layer="120" from-port="1" to-layer="121" to-port="1"/>
		<edge from-layer="121" from-port="2" to-layer="123" to-port="0"/>
		<edge from-layer="122" from-port="1" to-layer="123" to-port="1"/>
		<edge from-layer="123" from-port="2" to-layer="125" to-port="0"/>
		<edge from-layer="124" from-port="1" to-layer="125" to-port="1"/>
		<edge from-layer="125" from-port="2" to-layer="127" to-port="0"/>
		<edge from-layer="126" from-port="1" to-layer="127" to-port="1"/>
		<edge from-layer="119" from-port="1" to-layer="129" to-port="0"/>
		<edge from-layer="128" from-port="1" to-layer="129" to-port="1"/>
		<edge from-layer="129" from-port="2" to-layer="131" to-port="0"/>
		<edge from-layer="130" from-port="1" to-layer="131" to-port="1"/>
		<edge from-layer="131" from-port="2" to-layer="132" to-port="0"/>
		<edge from-layer="132" from-port="1" to-layer="134" to-port="0"/>
		<edge from-layer="133" from-port="1" to-layer="134" to-port="1"/>
		<edge from-layer="134" from-port="2" to-layer="136" to-port="0"/>
		<edge from-layer="135" from-port="1" to-layer="136" to-port="1"/>
		<edge from-layer="136" from-port="2" to-layer="137" to-port="0"/>
		<edge from-layer="137" from-port="1" to-layer="139" to-port="0"/>
		<edge from-layer="138" from-port="1" to-layer="139" to-port="1"/>
		<edge from-layer="139" from-port="2" to-layer="141" to-port="0"/>
		<edge from-layer="140" from-port="1" to-layer="141" to-port="1"/>
		<edge from-layer="141" from-port="2" to-layer="142" to-port="0"/>
		<edge from-layer="142" from-port="1" to-layer="144" to-port="0"/>
		<edge from-layer="143" from-port="1" to-layer="144" to-port="1"/>
		<edge from-layer="144" from-port="2" to-layer="146" to-port="0"/>
		<edge from-layer="145" from-port="1" to-layer="146" to-port="1"/>
		<edge from-layer="146" from-port="2" to-layer="147" to-port="0"/>
		<edge from-layer="147" from-port="1" to-layer="149" to-port="0"/>
		<edge from-layer="148" from-port="1" to-layer="149" to-port="1"/>
		<edge from-layer="149" from-port="2" to-layer="151" to-port="0"/>
		<edge from-layer="150" from-port="1" to-layer="151" to-port="1"/>
		<edge from-layer="151" from-port="2" to-layer="153" to-port="0"/>
		<edge from-layer="152" from-port="1" to-layer="153" to-port="1"/>
		<edge from-layer="153" from-port="2" to-layer="155" to-port="0"/>
		<edge from-layer="154" from-port="1" to-layer="155" to-port="1"/>
		<edge from-layer="147" from-port="1" to-layer="157" to-port="0"/>
		<edge from-layer="156" from-port="1" to-layer="157" to-port="1"/>
		<edge from-layer="157" from-port="2" to-layer="159" to-port="0"/>
		<edge from-layer="158" from-port="1" to-layer="159" to-port="1"/>
		<edge from-layer="159" from-port="2" to-layer="160" to-port="0"/>
		<edge from-layer="160" from-port="1" to-layer="162" to-port="0"/>
		<edge from-layer="161" from-port="1" to-layer="162" to-port="1"/>
		<edge from-layer="162" from-port="2" to-layer="164" to-port="0"/>
		<edge from-layer="163" from-port="1" to-layer="164" to-port="1"/>
		<edge from-layer="164" from-port="2" to-layer="165" to-port="0"/>
		<edge from-layer="165" from-port="1" to-layer="167" to-port="0"/>
		<edge from-layer="166" from-port="1" to-layer="167" to-port="1"/>
		<edge from-layer="167" from-port="2" to-layer="169" to-port="0"/>
		<edge from-layer="168" from-port="1" to-layer="169" to-port="1"/>
		<edge from-layer="169" from-port="2" to-layer="171" to-port="0"/>
		<edge from-layer="170" from-port="1" to-layer="171" to-port="1"/>
		<edge from-layer="171" from-port="2" to-layer="173" to-port="0"/>
		<edge from-layer="172" from-port="1" to-layer="173" to-port="1"/>
		<edge from-layer="165" from-port="1" to-layer="175" to-port="0"/>
		<edge from-layer="174" from-port="1" to-layer="175" to-port="1"/>
		<edge from-layer="175" from-port="2" to-layer="177" to-port="0"/>
		<edge from-layer="176" from-port="1" to-layer="177" to-port="1"/>
		<edge from-layer="177" from-port="2" to-layer="178" to-port="0"/>
		<edge from-layer="178" from-port="1" to-layer="180" to-port="0"/>
		<edge from-layer="179" from-port="1" to-layer="180" to-port="1"/>
		<edge from-layer="180" from-port="2" to-layer="182" to-port="0"/>
		<edge from-layer="181" from-port="1" to-layer="182" to-port="1"/>
		<edge from-layer="182" from-port="2" to-layer="183" to-port="0"/>
		<edge from-layer="183" from-port="1" to-layer="185" to-port="0"/>
		<edge from-layer="184" from-port="1" to-layer="185" to-port="1"/>
		<edge from-layer="185" from-port="2" to-layer="187" to-port="0"/>
		<edge from-layer="186" from-port="1" to-layer="187" to-port="1"/>
		<edge from-layer="187" from-port="2" to-layer="189" to-port="0"/>
		<edge from-layer="188" from-port="1" to-layer="189" to-port="1"/>
		<edge from-layer="189" from-port="2" to-layer="191" to-port="0"/>
		<edge from-layer="190" from-port="1" to-layer="191" to-port="1"/>
		<edge from-layer="183" from-port="1" to-layer="193" to-port="0"/>
		<edge from-layer="192" from-port="1" to-layer="193" to-port="1"/>
		<edge from-layer="193" from-port="2" to-layer="195" to-port="0"/>
		<edge from-layer="194" from-port="1" to-layer="195" to-port="1"/>
		<edge from-layer="195" from-port="2" to-layer="196" to-port="0"/>
		<edge from-layer="196" from-port="1" to-layer="198" to-port="0"/>
		<edge from-layer="197" from-port="1" to-layer="198" to-port="1"/>
		<edge from-layer="198" from-port="2" to-layer="200" to-port="0"/>
		<edge from-layer="199" from-port="1" to-layer="200" to-port="1"/>
		<edge from-layer="200" from-port="2" to-layer="201" to-port="0"/>
		<edge from-layer="201" from-port="1" to-layer="203" to-port="0"/>
		<edge from-layer="202" from-port="1" to-layer="203" to-port="1"/>
		<edge from-layer="203" from-port="2" to-layer="205" to-port="0"/>
		<edge from-layer="204" from-port="1" to-layer="205" to-port="1"/>
		<edge from-layer="205" from-port="2" to-layer="207" to-port="0"/>
		<edge from-layer="206" from-port="1" to-layer="207" to-port="1"/>
		<edge from-layer="207" from-port="2" to-layer="209" to-port="0"/>
		<edge from-layer="208" from-port="1" to-layer="209" to-port="1"/>
		<edge from-layer="201" from-port="1" to-layer="211" to-port="0"/>
		<edge from-layer="210" from-port="1" to-layer="211" to-port="1"/>
		<edge from-layer="211" from-port="2" to-layer="213" to-port="0"/>
		<edge from-layer="212" from-port="1" to-layer="213" to-port="1"/>
		<edge from-layer="213" from-port="2" to-layer="214" to-port="0"/>
		<edge from-layer="214" from-port="1" to-layer="216" to-port="0"/>
		<edge from-layer="215" from-port="1" to-layer="216" to-port="1"/>
		<edge from-layer="216" from-port="2" to-layer="218" to-port="0"/>
		<edge from-layer="217" from-port="1" to-layer="218" to-port="1"/>
		<edge from-layer="218" from-port="2" to-layer="219" to-port="0"/>
		<edge from-layer="219" from-port="1" to-layer="221" to-port="0"/>
		<edge from-layer="220" from-port="1" to-layer="221" to-port="1"/>
		<edge from-layer="221" from-port="2" to-layer="223" to-port="0"/>
		<edge from-layer="222" from-port="1" to-layer="223" to-port="1"/>
		<edge from-layer="223" from-port="2" to-layer="225" to-port="0"/>
		<edge from-layer="224" from-port="1" to-layer="225" to-port="1"/>
		<edge from-layer="225" from-port="2" to-layer="227" to-port="0"/>
		<edge from-layer="226" from-port="1" to-layer="227" to-port="1"/>
		<edge from-layer="127" from-port="2" to-layer="228" to-port="0"/>
		<edge from-layer="155" from-port="2" to-layer="228" to-port="1"/>
		<edge from-layer="173" from-port="2" to-layer="228" to-port="2"/>
		<edge from-layer="191" from-port="2" to-layer="228" to-port="3"/>
		<edge from-layer="209" from-port="2" to-layer="228" to-port="4"/>
		<edge from-layer="227" from-port="2" to-layer="228" to-port="5"/>
		<edge from-layer="119" from-port="1" to-layer="230" to-port="0"/>
		<edge from-layer="229" from-port="1" to-layer="230" to-port="1"/>
		<edge from-layer="230" from-port="2" to-layer="232" to-port="0"/>
		<edge from-layer="231" from-port="1" to-layer="232" to-port="1"/>
		<edge from-layer="232" from-port="2" to-layer="234" to-port="0"/>
		<edge from-layer="233" from-port="1" to-layer="234" to-port="1"/>
		<edge from-layer="234" from-port="2" to-layer="236" to-port="0"/>
		<edge from-layer="235" from-port="1" to-layer="236" to-port="1"/>
		<edge from-layer="147" from-port="1" to-layer="238" to-port="0"/>
		<edge from-layer="237" from-port="1" to-layer="238" to-port="1"/>
		<edge from-layer="238" from-port="2" to-layer="240" to-port="0"/>
		<edge from-layer="239" from-port="1" to-layer="240" to-port="1"/>
		<edge from-layer="240" from-port="2" to-layer="242" to-port="0"/>
		<edge from-layer="241" from-port="1" to-layer="242" to-port="1"/>
		<edge from-layer="242" from-port="2" to-layer="244" to-port="0"/>
		<edge from-layer="243" from-port="1" to-layer="244" to-port="1"/>
		<edge from-layer="165" from-port="1" to-layer="246" to-port="0"/>
		<edge from-layer="245" from-port="1" to-layer="246" to-port="1"/>
		<edge from-layer="246" from-port="2" to-layer="248" to-port="0"/>
		<edge from-layer="247" from-port="1" to-layer="248" to-port="1"/>
		<edge from-layer="248" from-port="2" to-layer="250" to-port="0"/>
		<edge from-layer="249" from-port="1" to-layer="250" to-port="1"/>
		<edge from-layer="250" from-port="2" to-layer="252" to-port="0"/>
		<edge from-layer="251" from-port="1" to-layer="252" to-port="1"/>
		<edge from-layer="183" from-port="1" to-layer="254" to-port="0"/>
		<edge from-layer="253" from-port="1" to-layer="254" to-port="1"/>
		<edge from-layer="254" from-port="2" to-layer="256" to-port="0"/>
		<edge from-layer="255" from-port="1" to-layer="256" to-port="1"/>
		<edge from-layer="256" from-port="2" to-layer="258" to-port="0"/>
		<edge from-layer="257" from-port="1" to-layer="258" to-port="1"/>
		<edge from-layer="258" from-port="2" to-layer="260" to-port="0"/>
		<edge from-layer="259" from-port="1" to-layer="260" to-port="1"/>
		<edge from-layer="201" from-port="1" to-layer="262" to-port="0"/>
		<edge from-layer="261" from-port="1" to-layer="262" to-port="1"/>
		<edge from-layer="262" from-port="2" to-layer="264" to-port="0"/>
		<edge from-layer="263" from-port="1" to-layer="264" to-port="1"/>
		<edge from-layer="264" from-port="2" to-layer="266" to-port="0"/>
		<edge from-layer="265" from-port="1" to-layer="266" to-port="1"/>
		<edge from-layer="266" from-port="2" to-layer="268" to-port="0"/>
		<edge from-layer="267" from-port="1" to-layer="268" to-port="1"/>
		<edge from-layer="219" from-port="1" to-layer="270" to-port="0"/>
		<edge from-layer="269" from-port="1" to-layer="270" to-port="1"/>
		<edge from-layer="270" from-port="2" to-layer="272" to-port="0"/>
		<edge from-layer="271" from-port="1" to-layer="272" to-port="1"/>
		<edge from-layer="272" from-port="2" to-layer="274" to-port="0"/>
		<edge from-layer="273" from-port="1" to-layer="274" to-port="1"/>
		<edge from-layer="274" from-port="2" to-layer="276" to-port="0"/>
		<edge from-layer="275" from-port="1" to-layer="276" to-port="1"/>
		<edge from-layer="236" from-port="2" to-layer="277" to-port="0"/>
		<edge from-layer="244" from-port="2" to-layer="277" to-port="1"/>
		<edge from-layer="252" from-port="2" to-layer="277" to-port="2"/>
		<edge from-layer="260" from-port="2" to-layer="277" to-port="3"/>
		<edge from-layer="268" from-port="2" to-layer="277" to-port="4"/>
		<edge from-layer="276" from-port="2" to-layer="277" to-port="5"/>
		<edge from-layer="277" from-port="6" to-layer="279" to-port="0"/>
		<edge from-layer="278" from-port="1" to-layer="279" to-port="1"/>
		<edge from-layer="279" from-port="2" to-layer="280" to-port="0"/>
		<edge from-layer="280" from-port="1" to-layer="282" to-port="0"/>
		<edge from-layer="281" from-port="1" to-layer="282" to-port="1"/>
		<edge from-layer="119" from-port="1" to-layer="283" to-port="0"/>
		<edge from-layer="283" from-port="1" to-layer="287" to-port="0"/>
		<edge from-layer="284" from-port="1" to-layer="287" to-port="1"/>
		<edge from-layer="285" from-port="1" to-layer="287" to-port="2"/>
		<edge from-layer="286" from-port="1" to-layer="287" to-port="3"/>
		<edge from-layer="4" from-port="2" to-layer="288" to-port="0"/>
		<edge from-layer="288" from-port="1" to-layer="292" to-port="0"/>
		<edge from-layer="289" from-port="1" to-layer="292" to-port="1"/>
		<edge from-layer="290" from-port="1" to-layer="292" to-port="2"/>
		<edge from-layer="291" from-port="1" to-layer="292" to-port="3"/>
		<edge from-layer="287" from-port="4" to-layer="293" to-port="0"/>
		<edge from-layer="292" from-port="4" to-layer="293" to-port="1"/>
		<edge from-layer="293" from-port="2" to-layer="295" to-port="0"/>
		<edge from-layer="294" from-port="1" to-layer="295" to-port="1"/>
		<edge from-layer="147" from-port="1" to-layer="296" to-port="0"/>
		<edge from-layer="296" from-port="1" to-layer="300" to-port="0"/>
		<edge from-layer="297" from-port="1" to-layer="300" to-port="1"/>
		<edge from-layer="298" from-port="1" to-layer="300" to-port="2"/>
		<edge from-layer="299" from-port="1" to-layer="300" to-port="3"/>
		<edge from-layer="4" from-port="2" to-layer="301" to-port="0"/>
		<edge from-layer="301" from-port="1" to-layer="305" to-port="0"/>
		<edge from-layer="302" from-port="1" to-layer="305" to-port="1"/>
		<edge from-layer="303" from-port="1" to-layer="305" to-port="2"/>
		<edge from-layer="304" from-port="1" to-layer="305" to-port="3"/>
		<edge from-layer="300" from-port="4" to-layer="306" to-port="0"/>
		<edge from-layer="305" from-port="4" to-layer="306" to-port="1"/>
		<edge from-layer="306" from-port="2" to-layer="308" to-port="0"/>
		<edge from-layer="307" from-port="1" to-layer="308" to-port="1"/>
		<edge from-layer="165" from-port="1" to-layer="309" to-port="0"/>
		<edge from-layer="309" from-port="1" to-layer="313" to-port="0"/>
		<edge from-layer="310" from-port="1" to-layer="313" to-port="1"/>
		<edge from-layer="311" from-port="1" to-layer="313" to-port="2"/>
		<edge from-layer="312" from-port="1" to-layer="313" to-port="3"/>
		<edge from-layer="4" from-port="2" to-layer="314" to-port="0"/>
		<edge from-layer="314" from-port="1" to-layer="318" to-port="0"/>
		<edge from-layer="315" from-port="1" to-layer="318" to-port="1"/>
		<edge from-layer="316" from-port="1" to-layer="318" to-port="2"/>
		<edge from-layer="317" from-port="1" to-layer="318" to-port="3"/>
		<edge from-layer="313" from-port="4" to-layer="319" to-port="0"/>
		<edge from-layer="318" from-port="4" to-layer="319" to-port="1"/>
		<edge from-layer="319" from-port="2" to-layer="321" to-port="0"/>
		<edge from-layer="320" from-port="1" to-layer="321" to-port="1"/>
		<edge from-layer="183" from-port="1" to-layer="322" to-port="0"/>
		<edge from-layer="322" from-port="1" to-layer="326" to-port="0"/>
		<edge from-layer="323" from-port="1" to-layer="326" to-port="1"/>
		<edge from-layer="324" from-port="1" to-layer="326" to-port="2"/>
		<edge from-layer="325" from-port="1" to-layer="326" to-port="3"/>
		<edge from-layer="4" from-port="2" to-layer="327" to-port="0"/>
		<edge from-layer="327" from-port="1" to-layer="331" to-port="0"/>
		<edge from-layer="328" from-port="1" to-layer="331" to-port="1"/>
		<edge from-layer="329" from-port="1" to-layer="331" to-port="2"/>
		<edge from-layer="330" from-port="1" to-layer="331" to-port="3"/>
		<edge from-layer="326" from-port="4" to-layer="332" to-port="0"/>
		<edge from-layer="331" from-port="4" to-layer="332" to-port="1"/>
		<edge from-layer="332" from-port="2" to-layer="334" to-port="0"/>
		<edge from-layer="333" from-port="1" to-layer="334" to-port="1"/>
		<edge from-layer="201" from-port="1" to-layer="335" to-port="0"/>
		<edge from-layer="335" from-port="1" to-layer="339" to-port="0"/>
		<edge from-layer="336" from-port="1" to-layer="339" to-port="1"/>
		<edge from-layer="337" from-port="1" to-layer="339" to-port="2"/>
		<edge from-layer="338" from-port="1" to-layer="339" to-port="3"/>
		<edge from-layer="4" from-port="2" to-layer="340" to-port="0"/>
		<edge from-layer="340" from-port="1" to-layer="344" to-port="0"/>
		<edge from-layer="341" from-port="1" to-layer="344" to-port="1"/>
		<edge from-layer="342" from-port="1" to-layer="344" to-port="2"/>
		<edge from-layer="343" from-port="1" to-layer="344" to-port="3"/>
		<edge from-layer="339" from-port="4" to-layer="345" to-port="0"/>
		<edge from-layer="344" from-port="4" to-layer="345" to-port="1"/>
		<edge from-layer="345" from-port="2" to-layer="347" to-port="0"/>
		<edge from-layer="346" from-port="1" to-layer="347" to-port="1"/>
		<edge from-layer="219" from-port="1" to-layer="348" to-port="0"/>
		<edge from-layer="348" from-port="1" to-layer="352" to-port="0"/>
		<edge from-layer="349" from-port="1" to-layer="352" to-port="1"/>
		<edge from-layer="350" from-port="1" to-layer="352" to-port="2"/>
		<edge from-layer="351" from-port="1" to-layer="352" to-port="3"/>
		<edge from-layer="4" from-port="2" to-layer="353" to-port="0"/>
		<edge from-layer="353" from-port="1" to-layer="357" to-port="0"/>
		<edge from-layer="354" from-port="1" to-layer="357" to-port="1"/>
		<edge from-layer="355" from-port="1" to-layer="357" to-port="2"/>
		<edge from-layer="356" from-port="1" to-layer="357" to-port="3"/>
		<edge from-layer="352" from-port="4" to-layer="358" to-port="0"/>
		<edge from-layer="357" from-port="4" to-layer="358" to-port="1"/>
		<edge from-layer="358" from-port="2" to-layer="360" to-port="0"/>
		<edge from-layer="359" from-port="1" to-layer="360" to-port="1"/>
		<edge from-layer="295" from-port="2" to-layer="361" to-port="0"/>
		<edge from-layer="308" from-port="2" to-layer="361" to-port="1"/>
		<edge from-layer="321" from-port="2" to-layer="361" to-port="2"/>
		<edge from-layer="334" from-port="2" to-layer="361" to-port="3"/>
		<edge from-layer="347" from-port="2" to-layer="361" to-port="4"/>
		<edge from-layer="360" from-port="2" to-layer="361" to-port="5"/>
		<edge from-layer="228" from-port="6" to-layer="362" to-port="0"/>
		<edge from-layer="282" from-port="2" to-layer="362" to-port="1"/>
		<edge from-layer="361" from-port="6" to-layer="362" to-port="2"/>
		<edge from-layer="362" from-port="3" to-layer="363" to-port="0"/>
	</edges>
	<meta_data>
		<MO_version value=""/>
		<cli_parameters>
			<blobs_as_inputs value="True"/>
			<caffe_parser_path value="DIR"/>
			<data_type value="float"/>
			<disable_omitting_optional value="False"/>
			<disable_resnet_optimization value="False"/>
			<disable_weights_compression value="False"/>
			<enable_concat_optimization value="False"/>
			<enable_flattening_nested_params value="False"/>
			<extensions value="DIR"/>
			<framework value="caffe"/>
			<freeze_placeholder_with_value value="{}"/>
			<generate_deprecated_IR_V2 value="False"/>
			<generate_deprecated_IR_V7 value="False"/>
			<generate_experimental_IR_V10 value="True"/>
			<input_model value="DIR/ssd_face_mask.caffemodel"/>
			<input_proto value="DIR/ssd_face_mask.prototxt"/>
			<k value="DIR/CustomLayersMapping.xml"/>
			<keep_quantize_ops_in_IR value="True"/>
			<keep_shape_ops value="True"/>
			<log_level value="ERROR"/>
			<mean_scale_values value="[(array([127.5, 127.5, 127.5]), array([127.5, 127.5, 127.5]))]"/>
			<mean_values value="[127.5,127.5,127.5]"/>
			<model_name value="ssd_face_mask"/>
			<move_to_preprocess value="False"/>
			<output_dir value="DIR"/>
			<placeholder_data_types value="{}"/>
			<progress value="False"/>
			<reverse_input_channels value="False"/>
			<scale_values value="[127.5,127.5,127.5]"/>
			<silent value="False"/>
			<stream_output value="False"/>
			<unset unset_cli_parameters="batch, disable_fusing, disable_gfusing, finegrain_fusing, input, input_shape, mean_file, mean_file_offsets, output, placeholder_shapes, scale, transformations_config"/>
		</cli_parameters>
	</meta_data>
</net>
